Quantization/post-quantization-training/catvsdog_fp16_quant.tflite (tflite, 32332 bytes, 7 tensors)

sequential/conv2d/Conv2D/ReadVariableOp f2 [32, 3, 3, 3]
00000000: 5aab 2625 14a2 26ac 612f 09a5 4eac 529e
00000010: ea2c ce30 ca2a 4f2d a8ad e830 13b0 03a2
00000020: 71ad 59ab 13b0 28a8 c22f 54ac eb2b 8dad
00000030: 6d27 f22d cdaa 482a 8fab 782f 3928 4eaf
00000040: 1c30 8aaf 0cae 2da8 6cad d8af 29a8 18ad
00000050: 32a6 1130 6611 9e2c f62c 062a 762c 2824
00000060: 70b0 2522 70ae e02d e22f a8ad 2dad 66a7
00000070: 982d 8eaf 232c 6a30 f614 51ab adaa f9a8
00000080: bbac fb2d 242a 72a8 4db0 2b30 1425 87ab
00000090: 8cae 56af e2ad 8d2c 9a23 df2e 6ba2 dd9d
000000a0: f9a5 272f a42d 85ae 05a4 0a2e 2cac 29ad
000000b0: 3730 ec29 6930 24b0 c9ac ef2e 712c 33ad
000000c0: a0ab 50af 3d2e b02f a328 45aa b2ae 21b0
000000d0: 1524 2e8e 9aac 2ca2 dcac a1ad c222 91a6
000000e0: 6aaf 99b0 3bae 2da7 26ae 421f 41ab 6aaa
000000f0: feae 5eae 3dac 842a 51ad 0d2b f325 f0ad
00000100: 5921 73af c7ac 682c d4ab 7bac 902e 4730
00000110: ed20 9cad 0598 71af e6a9 202a 7ea7 66ac
00000120: 0030 4eaf 13a2 5da5 74a8 102f 322d 4b2a
00000130: 7faf 32af 40af 68ad 5e29 3530 d82e d0a8
00000140: eaae d2ae b5a7 eb98 f62d 7b2e b6ae 4b2a
00000150: a8ae 02ac ab97 1592 0b28 fc2c efa3 ba2d
00000160: 572c 76a8 4cb0 9f29 4aac dea9 8b2d 79b0
00000170: 35a4 ab27 caab 4a16 acad 9223 2fae 2c2d
00000180: f22d 15ac 9fae 3baf 8ead 5625 cf20 a12d
00000190: f0af c2b0 f3a9 142f 2d28 b8a9 fd2c 69a9
000001a0: 3e25 25ac 6d95 8ba9 dba3 4faf 932c 9baf
000001b0: 98a7 2628 f927 49ad 942f 0fb0 c2ae a32b
000001c0: 98b0 e52b e329 8bb0 ee2a 972f 4a28 dda9
000001d0: 699b 7bac a52d 232d 6129 43ad d52f daab
000001e0: 76ac ec2f 9327 74aa f6b0 84b0 8220 2e2e
000001f0: a3a9 96b0 0aa9 5b2f 832e c02d 0a2e eda8
-0.05743 0.02011 -0.01187 -0.0648 0.1153 -0.01967 -0.06726 -0.006172
0.0768 0.1501 0.05304 0.08295 -0.0884 0.1533 -0.1273 -0.01174
-0.085 -0.0574 -0.1273 -0.03247 0.1212 -0.0676 0.06186 -0.08673
0.029 0.0929 -0.05313 0.04907 -0.05905 0.1167 0.033 -0.11414
0.1284 -0.1178 -0.0945 -0.03262 -0.0847 -0.12256 -0.0325 -0.0796
-0.0242 0.1271 0.000659 0.07214 0.0775 0.04706 0.0697 0.01624
-0.1387 0.012 -0.1006 0.0918 0.12317 -0.0884 -0.0809 -0.0289
0.0874 -0.11804 0.06464 0.138 0.001211 -0.05716 -0.05215 -0.03885
-0.0739 0.09344 0.04797 -0.03473 -0.1344 0.1302 0.01984 -0.0588
-0.1023 -0.1146 -0.0919 0.0711 0.01485 0.10736 -0.012535 -0.005726
-0.02333 0.11176 0.08813 -0.10187 -0.0157 0.09436 -0.0652 -0.0806
0.1317 0.04626 0.1378 -0.1294 -0.07477 0.10834 0.0694 -0.08124
-0.05957 -0.11426 0.0975 0.1201 0.03622 -0.04898 -0.1046 -0.129
0.01595 -0.0003772 -0.0719 -0.012054 -0.0759 -0.08795 0.0132 -0.02565
-0.11584 -0.1437 -0.09735 -0.02803 -0.09607 0.007088 -0.05667 -0.0501
-0.10925 -0.0995 -0.0662 0.0509 -0.08307 0.05508 0.02324 -0.0928
0.010445 -0.1164 -0.07465 0.06885 -0.06116 -0.07 0.10254 0.1337
0.00962 -0.08765 -0.001963 -0.1163 -0.04608 0.04785 -0.02927 -0.0687
0.125 -0.11414 -0.01186 -0.02095 -0.0348 0.11035 0.0812 0.04916
-0.1171 -0.1124 -0.1133 -0.0845 0.04193 0.1315 0.10693 -0.0376
-0.10803 -0.10657 -0.0301 -0.002401 0.09314 0.10126 -0.10486 0.04916
-0.104 -0.0626 -0.001872 -0.0007424 0.0316 0.0779 -0.015495 0.0895
0.0678 -0.03485 -0.1343 0.0439 -0.067 -0.04584 0.0866 -0.1398
-0.01643 0.02995 -0.06085 0.001535 -0.0886 0.014786 -0.0966 0.0808
0.0929 -0.0638 -0.10345 -0.113 -0.0868 0.02084 0.00939 0.08795
-0.124 -0.1487 -0.04648 0.1106 0.03262 -0.04468 0.07794 -0.04227
0.02048 -0.06476 -0.001325 -0.0433 -0.01534 -0.1142 0.0715 -0.11884
-0.02966 0.0324 0.03114 -0.0826 0.1184 -0.1268 -0.1056 0.05966
-0.1436 0.06168 0.046 -0.142 0.05414 0.1186 0.0335 -0.0458
-0.003618 -0.07 0.0882 0.08026 0.04202 -0.0822 0.1224 -0.06134
-0.0697 0.1238 0.02959 -0.0504 -0.155 -0.1411 0.008804 0.09656
-0.04404 -0.1433 -0.03937 0.1149 0.10175 0.08984 0.09436 -0.03848

sequential/conv2d/Conv2D_bias f2 [32]
00000000: 8d1d 11a0 a522 06a4 99a2 781c 46a1 b599
00000010: 189f 3fa0 efa5 d2a5 869b 9ba5 9ca0 632b
00000020: 491e f99f 81a5 4d25 6f19 a19e 2e1c 6aa1
00000030: f39d 381d 5da3 04a1 c91d de15 83a4 50a5
0.00542 -0.00794 0.01298 -0.01572 -0.012886 0.004364 -0.0103 -0.002787
-0.006927 -0.00829 -0.02318 -0.02274 -0.003674 -0.0219 -0.009 0.0577
0.006138 -0.007786 -0.0215 0.0207 0.002653 -0.006474 0.00408 -0.010574
-0.00581 0.005096 -0.01438 -0.009796 0.00565 0.001432 -0.01762 -0.02075

sequential/conv2d_1/Conv2D/ReadVariableOp f2 [32, 3, 3, 32]
00000000: 74a8 ab22 d2a4 be2d 1a2c 15ab e42a 7d2e
00000010: 8b2d d625 0726 0fa8 a42a e2a6 9025 1f30
00000020: 602c 68a6 0f21 93a9 5a21 fca4 332a 6528
00000030: 272c 93a9 aaa9 61a9 c22e eb2c 792e f7a6
00000040: 7728 2cac 6c2f 35a8 67ae 242e 67a4 a4a1
00000050: 292d 6dad f2a6 341c 63ae 5c29 e8a8 eca9
00000060: 852d aba0 08ac 1b20 840f 5819 b7ab 64a8
00000070: 2a9f 372d c5ae 85a8 612e 5329 ecac a624
00000080: 2329 b624 7a29 22ad 67ac 7f2c e02c d6a6
00000090: 17ae a817 20ae 529e 512c 8b9c 64ae 372b
000000a0: b1aa 372b 8118 9729 5328 3cb0 8dad 632a
000000b0: a7a9 03af 9219 1828 f72d 32aa 80ae 0e2c
000000c0: 56a5 082d aea1 c92d f1ad 0e2c 6dac c5a9
000000d0: 54ac f427 1c9e fd9f f124 1820 3daa 0327
000000e0: f7ac 1aae cc1d 981c 119c a49b f624 4f2c
000000f0: d029 782b cb2d 7faa 501d a41f e4ad 0aac
00000100: 55ac 33ab eea6 da2d 382a c0ab 9a2a 4628
00000110: 332e 6899 b9a3 8b2d 9c21 ffa1 2629 25ab
00000120: 14af 8525 c8a6 a3ae 26ab 8323 38ad a8ac
00000130: c32a 2aaa 4528 feac 8029 b329 87ad 4921
00000140: ae2a 3325 5a2b 032d 6d2c 541e feac cd1c
00000150: 76a7 7c2c a3a8 992d a12d 85a8 79aa 3528
00000160: 9e2c 7b1c c928 46ac 3fab f8a4 182c a39f
00000170: d3ad 152b c2ac 6e2c eaa6 12ac 9125 f42a
00000180: 4aac d8ac c29b e5aa 2e2e 639a 46ad d42d
00000190: 88a9 c321 2cad 4921 f5aa 18ac f9ae bea8
000001a0: b22d 21ae 5bac 2a2f 382d 13a8 1bad dead
000001b0: f9ac 309d 3a2b 7f2c 031f ff2a 442c 21ae
000001c0: 36ac 87a5 572e 4a25 79aa 0cae bdae 0028
000001d0: d8aa 862d a9a9 d228 70aa d429 a2ae 432b
000001e0: 742e 6a29 25ab 2e29 5829 d32c 54ab c02e
000001f0: dca9 71ac e02c dba0 54a8 e82a 4c1f 8892
-0.0348 0.01302 -0.01883 0.0897 0.0641 -0.05533 0.05383 0.1014
0.0866 0.0228 0.02354 -0.0317 0.05188 -0.02689 0.02173 0.1288
0.06836 -0.02502 0.00988 -0.04355 0.01045 -0.01947 0.04843 0.03433
0.0649 -0.04355 -0.04425 -0.04202 0.1056 0.07684 0.10114 -0.0272
0.03488 -0.0652 0.11597 -0.03287 -0.10004 0.09595 -0.0172 -0.01102
0.0806 -0.0848 -0.02713 0.004105 -0.0998 0.04187 -0.03833 -0.04626
0.08624 -0.00912 -0.063 0.00802 0.0004587 0.00261 -0.06027 -0.0343
-0.006996 0.0815 -0.1058 -0.0353 0.0997 0.0416 -0.0769 0.01816
0.04013 0.0184 0.0428 -0.0802 -0.0688 0.07025 0.0762 -0.0267
-0.09515 0.001869 -0.0957 -0.006172 0.06744 -0.004436 -0.09985 0.05637
-0.05228 0.05637 0.0022 0.04367 0.03378 -0.1323 -0.08673 0.0499
-0.04416 -0.10956 0.00272 0.03198 0.0932 -0.0484 -0.10156 0.06335
-0.02084 0.0786 -0.01109 0.0904 -0.09283 0.06335 -0.06915 -0.04507
-0.0676 0.03107 -0.005966 -0.0078 0.0193 0.007996 -0.04874 0.02739
-0.0776 -0.09534 0.00566 0.004486 -0.00397 -0.00373 0.01938 0.0673
0.0454 0.05835 0.0905 -0.05075 0.005188 0.00746 -0.09204 -0.0631
-0.0677 -0.05624 -0.02707 0.09143 0.04858 -0.06055 0.05157 0.0334
0.09686 -0.00264 -0.01508 0.0866 0.010956 -0.01171 0.04022 -0.05582
-0.1106 0.02156 -0.02649 -0.1037 -0.05585 0.01467 -0.08154 -0.07275
0.05283 -0.04816 0.03336 -0.078 0.04297 0.04453 -0.08636 0.01032
0.0522 0.02031 0.05743 0.0783 0.06915 0.00618 -0.078 0.00469
-0.02914 0.07007 -0.03622 0.08746 0.08795 -0.0353 -0.05057 0.03287
0.07214 0.004375 0.03738 -0.0668 -0.0566 -0.01941 0.06396 -0.007458
-0.091 0.05533 -0.07434 0.0692 -0.02701 -0.0636 0.02174 0.05432
-0.067 -0.0757 -0.003788 -0.05386 0.09656 -0.003119 -0.0824 0.09106
-0.0432 0.01125 -0.0808 0.01032 -0.05435 -0.06396 -0.10895 -0.03705
0.089 -0.09576 -0.06805 0.11194 0.08154 -0.03183 -0.0798 -0.0917
-0.0777 -0.005066 0.05646 0.07025 0.006847 0.05466 0.06665 -0.09576
-0.0658 -0.02159 0.09906 0.02066 -0.05057 -0.0945 -0.1053 0.03125
-0.05347 0.0863 -0.04422 0.03766 -0.0503 0.04553 -0.10364 0.05673
0.1008 0.0423 -0.05582 0.04047 0.04175 0.0754 -0.05725 0.10547
-0.04578 -0.0694 0.0762 -0.00948 -0.0338 0.05396 0.007126 -0.0007973

sequential/conv2d_1/Conv2D_bias f2 [32]
00000000: 2a20 1ba3 fc23 279e e5a3 1724 7622 c696
00000010: de25 aca1 9a21 2ca4 8424 54a2 641a 9ca3
00000020: 2021 82a0 73a0 e696 2a1f 2b24 b224 3a26
00000030: aea1 1da1 ff99 a7a3 6c26 e923 25a0 b30d
0.00813 -0.01388 0.015594 -0.00601 -0.01542 0.01598 0.01262 -0.001654
0.02292 -0.01108 0.01094 -0.0163 0.01764 -0.01236 0.00312 -0.01486
0.01001 -0.008804 -0.00869 -0.001684 0.006996 0.01628 0.01834 0.02432
-0.01109 -0.00999 -0.002928 -0.014946 0.02509 0.01545 -0.008095 0.0003479

sequential/dense/MatMul/ReadVariableOp/transpose f2 [128, 32]
00000000: a230 12b0 eeaf 349b a9ad 9721 41a9 06a9
00000010: 68b1 0ab2 ea28 0cb1 70b0 bb2c cd2f 2332
00000020: c1ac a919 bf31 f631 beac 292f 29af 13b1
00000030: e1b1 b0a4 db31 67a7 712a 57aa 76b1 7131
00000040: 24b0 d7b0 50b0 84a3 7930 7631 68ae ae31
00000050: b92f d3ab a1ab d925 3726 0ca7 b431 1631
00000060: 59a6 3fb1 a0ad 9c2e 39b0 081f 3185 b4b0
00000070: 3faf a929 edb0 97a5 37af 7421 c1b1 052f
00000080: 80a2 8232 3421 c828 bca6 9f2c dc23 c8ac
00000090: b6b1 bbb1 bdae a32c d79f aab1 39af d224
000000a0: 50ac 66a4 5ca6 70af 75ab 63ad 2eac 0bab
000000b0: aa2d 0228 031e d7ac e4ad a231 8632 e6b1
000000c0: b9ab c528 082d 35b1 ff30 3628 7432 382a
000000d0: 232c a328 32af 3a31 ff26 9cab 9fb0 91ad
000000e0: b430 a6b1 b19d 2531 4b31 d5a9 d41d 5b30
000000f0: 8f2f de30 6823 b823 e1a6 682b 16a9 16ae
00000100: ce2e b6ad 7ab0 2a30 382c 0d28 0e31 2631
00000110: 2426 6731 352e 4db1 6324 db21 c82e 9e31
00000120: ba31 e3a1 0eb1 698f 4829 e2ad 24b0 92b0
00000130: a0a4 49ae ffa8 4b2f 7cb0 83af e92a 20a7
00000140: 7b31 1cad 642e fe31 92b1 adaf 6baa 1927
00000150: 53b1 722e 701e 2332 7e27 d3ab 6f28 d82c
00000160: f431 e131 8527 dead 6f31 76b0 8da4 0931
00000170: 6e31 cf29 151e 36ac 33b1 342f 8f2d d830
00000180: 5f30 e82e 22b1 de2e a730 db25 86a5 52a8
00000190: 0faa dd30 03b0 34b2 0e30 75b1 a0b1 de2f
000001a0: d8b0 662d d321 f731 8331 f7aa ceab 9caf
000001b0: 7aab 792e d42d 6f2a 1a2a fc2b 21a6 f42d
000001c0: 582e 79b1 98a4 6d30 f1b0 6423 272f 58ac
000001d0: ab2b 3cb1 f4b0 be31 62b0 c6a9 292c fdad
000001e0: c8b1 df2b 08aa 862d f92f 8630 06a4 d7b1
000001f0: caa8 5da7 9f2d 4d28 9b23 4ab1 55af 79a4
0.1448 -0.1272 -0.1239 -0.003517 -0.08844 0.01092 -0.04105 -0.03925
-0.169 -0.1887 0.0384 -0.1577 -0.1387 0.0739 0.1219 0.1918
-0.0743 0.002764 0.1796 0.1863 -0.0741 0.1119 -0.1119 -0.1586
-0.1837 -0.01831 0.183 -0.02892 0.05032 -0.04953 -0.1707 0.17
-0.1294 -0.1512 -0.1348 -0.01468 0.1398 0.1707 -0.1001 0.1775
0.12067 -0.06113 -0.0596 0.02284 0.02428 -0.02753 0.1782 0.1589
-0.0248 -0.164 -0.0879 0.1033 -0.132 0.006866 -7.92e-05 -0.147
-0.1132 0.04422 -0.1539 -0.02184 -0.11273 0.01065 -0.1798 0.1097
-0.012695 0.2034 0.01016 0.03735 -0.0263 0.0722 0.01535 -0.0747
-0.1785 -0.1791 -0.1053 0.07245 -0.007656 -0.177 -0.11285 0.01883
-0.0674 -0.01718 -0.02484 -0.1162 -0.05826 -0.08417 -0.0653 -0.05502
0.0885 0.0313 0.00587 -0.0756 -0.09204 0.176 0.2039 -0.1843
-0.06033 0.03726 0.0786 -0.1627 0.1561 0.0329 0.2017 0.04858
0.06464 0.03622 -0.1124 0.1633 0.02733 -0.05945 -0.1444 -0.087
0.147 -0.1765 -0.005558 0.1608 0.1654 -0.04556 0.00569 0.1361
0.1181 0.1521 0.014465 0.015076 -0.02687 0.05786 -0.03973 -0.0951
0.1063 -0.08923 -0.1399 0.1301 0.0659 0.03165 0.158 0.1609
0.02399 0.1688 0.097 -0.1656 0.01714 0.01144 0.10596 0.1755
0.179 -0.0115 -0.158 -0.0004523 0.04126 -0.0919 -0.1294 -0.1428
-0.01807 -0.0982 -0.03903 0.11395 -0.1401 -0.1174 0.054 -0.02783
0.1713 -0.07983 0.09985 0.1873 -0.1741 -0.11993 -0.05014 0.02773
-0.1664 0.1007 0.006287 0.1918 0.02927 -0.06113 0.03464 0.0757
0.186 0.1837 0.02937 -0.0917 0.1698 -0.1394 -0.01778 0.1573
0.1697 0.04538 0.00594 -0.0658 -0.1625 0.11255 0.08685 0.1514
0.1366 0.1079 -0.1604 0.1073 0.1454 0.02287 -0.02158 -0.03375
-0.04733 0.152 -0.1254 -0.1938 0.1267 -0.1705 -0.1758 0.1229
-0.1514 0.08435 0.011375 0.1864 0.1722 -0.0544 -0.06097 -0.1189
-0.0584 0.10114 0.09106 0.05026 0.04767 0.06238 -0.02394 0.093
0.0991 -0.171 -0.01794 0.1383 -0.1544 0.014435 0.11176 -0.0679
0.0599 -0.1636 -0.1548 0.1794 -0.137 -0.0451 0.065 -0.09357
-0.1807 0.0615 -0.04712 0.0863 0.1246 0.1414 -0.01572 -0.1825
-0.0374 -0.02876 0.0878 0.0336 0.014854 -0.1653 -0.11456 -0.01747

sequential/dense/MatMul_bias f2 [128]
00000000: 0e1e 449f 2922 931d 54a0 061f aa9c 0ba0
00000010: 50a2 1f21 291f 8d18 5a16 67a4 0620 faa2
00000020: 5fa0 0000 38a4 0000 489c 8124 b222 0000
00000030: 418c 2221 d39d 7e9b 8c95 6a13 c3a4 2c22
00000040: 3a24 62a0 6322 c0a4 0000 50a0 3f9a 98a4
00000050: cba1 48a0 751f e792 16a1 5917 4412 29a0
00000060: ac20 771d eca2 8da4 669c 2b23 44a5 4125
00000070: 6624 cb21 659f 0000 709f 301d 529e 53a0
00000080: 9c1f 0a20 5620 4920 9fa0 7d9e f914 8620
00000090: fb1d 8fa0 fc1f c6a1 159f 0000 d582 1a28
000000a0: 6ba1 da1d 1e21 b09d 49a0 15a5 6a20 27a0
000000b0: 791e 7f26 0000 f921 469d b7a1 8014 d39f
000000c0: 61a0 8419 e022 2c9e 749d f71f 2994 3a98
000000d0: 229e d923 0723 46a0 359a bc1d a29d 2799
000000e0: e81d aa9f c88e 0a20 2aa4 f620 50a0 889f
000000f0: 34a0 131e 3e9c f924 5d9c 0000 5ba0 6625
0.005913 -0.007095 0.01203 0.005444 -0.00845 0.00686 -0.004555 -0.0079
-0.01233 0.01 0.006992 0.002222 0.001551 -0.0172 0.00786 -0.013626
-0.00854 0.0 -0.01648 0.0 -0.00418 0.0176 0.01308 0.0
-0.0002596 0.010025 -0.005688 -0.003658 -0.001354 0.000905 -0.0186 0.012054
0.01651 -0.00856 0.012474 -0.01855 0.0 -0.00842 -0.00305 -0.01794
-0.011314 -0.00836 0.007282 -0.0008426 -0.00993 0.001794 0.000765 -0.008125
0.009125 0.005337 -0.01352 -0.01778 -0.004295 0.014 -0.02057 0.02052
0.01718 0.011314 -0.00722 0.0 -0.007263 0.005066 -0.006172 -0.008446
0.00743 0.00789 0.00847 0.00837 -0.009026 -0.006336 0.001214 0.008835
0.00584 -0.0089 0.007797 -0.01128 -0.006916 0.0 -4.32e-05 0.03204
-0.01058 0.005714 0.009995 -0.005554 -0.00837 -0.01985 0.00862 -0.00811
0.00632 0.02538 0.0 0.011665 -0.00515 -0.01116 0.001099 -0.00764
-0.00855 0.002693 0.01343 -0.006027 -0.005325 0.00778 -0.001016 -0.002064
-0.00599 0.01533 0.013725 -0.00835 -0.00303 0.0056 -0.0055 -0.002516
0.005768 -0.007484 -0.000414 0.00789 -0.01627 0.00969 -0.00842 -0.007355
-0.00821 0.00593 -0.004143 0.01942 -0.00426 0.0 -0.00851 0.02109

sequential/dense_1/MatMul/ReadVariableOp/transpose f2 [1, 128]
00000000: 67b1 8631 7c2c 4e2f 8e29 acaa 63b0 13b1
00000010: 3631 bbab 86b2 b52c 9e31 6e98 03b0 8131
00000020: 0530 3da2 ab2e 9b32 d431 0fb1 6faf bbac
00000030: 41ad 59b2 6ea8 042f 22b0 d72d 9032 80a8
00000040: 4db2 452c 2ea8 3f2c f42e 992d 1031 5e28
00000050: 5521 792c 63a8 6d2e 89b2 b52d d0ac b831
00000060: 15ab 42ae d39a a829 f124 4aad d1b1 83b2
00000070: 82ab 80af b3a9 212c 4632 1fad 3732 1a31
00000080: a5a7 2ab1 2fb3 83ae 2932 0730 1125 b3b0
00000090: 5bb2 ec2c 43b0 21b0 8e32 9e27 81aa faab
000000a0: 0930 b2a8 e22b eeb0 412d 2c1e 47a4 0421
000000b0: 3f31 07b3 1c29 22ac 2932 6127 4930 3aae
000000c0: c632 0fa6 0fac 6a32 af30 d1af 062f 8a32
000000d0: 882c 03b3 93b1 e62c 9b31 dba9 70a9 da21
000000e0: baad 3427 b5b1 51b1 6db0 3dab 6e2c 3e2a
000000f0: 372d c726 d22a 7ab3 c831 2bb0 6cad d0ad
-0.1688 0.1726 0.07007 0.11414 0.0434 -0.05212 -0.1371 -0.1586
0.1628 -0.0604 -0.2039 0.07355 0.1755 -0.002163 -0.1254 0.172
0.1256 -0.012184 0.1042 0.2064 0.1821 -0.1581 -0.11615 -0.0739
-0.0821 -0.1984 -0.0346 0.1096 -0.1292 0.09125 0.2051 -0.03516
-0.1969 0.0667 -0.03265 0.06635 0.10864 0.08746 0.1582 0.03412
0.010414 0.0699 -0.03427 0.1004 -0.2042 0.0892 -0.0752 0.1787
-0.05533 -0.0978 -0.003332 0.0442 0.0193 -0.08264 -0.1818 -0.2035
-0.05865 -0.1172 -0.04453 0.0645 0.196 -0.08 0.1942 0.1594
-0.02986 -0.1614 -0.2245 -0.10175 0.1925 0.1259 0.01979 -0.1469
-0.1986 0.0769 -0.1332 -0.129 0.2048 0.02975 -0.0508 -0.06232
0.1261 -0.03668 0.06158 -0.154 0.0821 0.006027 -0.01671 0.009796
0.164 -0.2196 0.03992 -0.0646 0.1925 0.02882 0.1339 -0.0973
0.2117 -0.02367 -0.0634 0.2004 0.1464 -0.12213 0.10974 0.2043
0.0708 -0.2191 -0.1742 0.07654 0.1752 -0.04575 -0.04248 0.01143
-0.0895 0.02814 -0.1783 -0.1661 -0.1383 -0.05655 0.0692 0.04877
0.0815 0.02647 0.05328 -0.2336 0.1807 -0.1302 -0.0847 -0.0908
