Quantization/post-quantization-training/catvsdog.tflite (tflite, 60376 bytes, 7 tensors)

sequential/conv2d/Conv2D/ReadVariableOp f4 [32, 3, 3, 3]
-0.057433277 0.020109043 -0.011872563 -0.06481453 0.115312405 -0.019665824 -0.06724319 -0.0061735935
0.076800294 0.15016274 0.053047355 0.08295754 -0.08839284 0.15334561 -0.12733436 -0.011740101
-0.0850269 -0.057402004 -0.12726109 -0.03247271 0.1212269 -0.06763473 0.06187425 -0.08675379
0.029009268 0.09291611 -0.05313899 0.049078424 -0.059058435 0.1167026 0.03297523 -0.11411489
0.12839127 -0.117815875 -0.09446484 -0.032635804 -0.08472796 -0.1225282 -0.032507043 -0.079581566
-0.024195906 0.12710238 0.0006591183 0.0721215 0.07753703 0.047059525 0.06968427 0.01624006
-0.13867328 0.012003005 -0.10060734 0.09178828 0.12318366 -0.08837086 -0.08084161 -0.0289052
0.08738457 -0.118044935 0.06465816 0.13792652 0.0012107725 -0.057171095 -0.052159674 -0.03884878
-0.07392306 0.093426265 0.04798889 -0.034715567 -0.13438222 0.13025469 0.01983242 -0.058801144
-0.10228639 -0.11462197 -0.09191104 0.07110599 0.01484403 0.10735783 -0.01253759 -0.005725869
-0.023325065 0.111753926 0.088146254 -0.10188872 -0.015696349 0.09436538 -0.06521112 -0.080610074
0.13172062 0.046274494 0.13776934 -0.12937336 -0.0747438 0.10832927 0.06941412 -0.081255965
-0.05957356 -0.114268266 0.09748517 0.12014665 0.036235962 -0.048984393 -0.10458975 -0.12898548
0.01593927 -0.00037717164 -0.07189707 -0.012050887 -0.07591333 -0.08793246 0.013196562 -0.025643121
-0.115849696 -0.14372025 -0.09737895 -0.028025934 -0.096077874 0.007089479 -0.056678604 -0.050113678
-0.10924582 -0.09951009 -0.06621087 0.05089871 -0.08304295 0.05508888 0.023242071 -0.09279326
0.010441284 -0.11640501 -0.07466291 0.068865165 -0.061142046 -0.07001817 0.10253035 0.13362539
0.009622977 -0.087636635 -0.0019619213 -0.11628143 -0.04609047 0.047862925 -0.029273573 -0.06869589
0.12498344 -0.11413929 -0.011860928 -0.0209444 -0.0348045 0.11035989 0.081154406 0.049178258
-0.117154375 -0.112411514 -0.11329201 -0.08446972 0.041942384 0.13142751 0.10695084 -0.037596118
-0.10801913 -0.10656564 -0.030111318 -0.002401797 0.093168974 0.10127491 -0.10487799 0.049162183
-0.10401948 -0.062635936 -0.0018723542 -0.0007423197 0.03158772 0.077889316 -0.015493313 0.08944863
0.067828625 -0.034840267 -0.13431634 0.043924388 -0.06702599 -0.045836076 0.0866111 -0.1397762
-0.016429551 0.029949237 -0.06086562 0.0015350733 -0.08862167 0.014787485 -0.09662188 0.08081518
0.092890255 -0.063794136 -0.10347142 -0.11297193 -0.086804435 0.020838413 0.009392725 0.08796099
-0.12401378 -0.14863314 -0.046478376 0.11058738 0.032612793 -0.044663996 0.07791546 -0.042263202
0.020474723 -0.06478229 -0.0013249408 -0.04330332 -0.015344384 -0.11417706 0.07150115 -0.11884274
-0.029669639 0.032404035 0.031138292 -0.082568884 0.11841617 -0.12677386 -0.10560552 0.059674427
-0.1435023 0.06168761 0.045978434 -0.14200485 0.05413951 0.118619435 0.03351631 -0.045805655
-0.003617512 -0.06998841 0.08816746 0.08024491 0.042029362 -0.08221168 0.122369125 -0.06133742
-0.069686435 0.12378597 0.02958728 -0.050406102 -0.15501185 -0.1411434 0.008800855 0.09658787
-0.044040978 -0.14328891 -0.039362 0.1149569 0.10174859 0.08984935 0.0943791 -0.0384769
00000000: 283f 6bbd b8bb a43c 2385 42bc 7bbd 84bd
00000010: e928 ec3d 391a a1bc ccb6 89bd db4b cabb
00000020: 7949 9d3d 43c4 193e 2f48 593d a5e5 a93d
00000030: 4e07 b5bd a206 1d3e f063 02be 8d59 40bc
00000040: 9522 aebd 5d1e 6bbd bb50 02be 1b02 05bd
00000050: cf45 f83d 1484 8abd db6f 7d3d f9ab b1bd
00000060: d8a4 ed3c cd4a be3d 45a8 59bd 7506 493d
00000070: 42e7 71bd c601 ef3d 0911 073d 11b5 e9bd
00000080: 0079 033e 7349 f1bd c876 c1bd 1fad 05bd
00000090: da85 adbd 11f0 fabd 1b26 05bd a9fb a2bd
000000a0: 7e36 c6bc 2027 023e aec8 2c3a 70b4 933d
000000b0: bccb 9e3d 7dc1 403d a0b6 8e3d e009 853c
000000c0: 5e00 0ebe 40a8 443c 390b cebd 7efb bb3d
000000d0: b747 fc3d c8fb b4bd 4990 a5bd 99ca ecbc
000000e0: aef6 b23d 8bc1 f1bd 7f6b 843d 9c3c 0d3e
000000f0: c9b2 9e3a 3d2c 6abd 62a5 55bd e61f 1fbd
00000100: f964 97bd 4556 bf3d 0090 443d e931 0ebd
00000110: 7e9b 09be 7c61 053e 9977 a23c 78d9 70bd
00000120: 877b d1bd ecbe eabd db3b bcbd 04a0 913d
00000130: 6034 733c 6cde db3d 776a 4dbc 12a0 bbbb
00000140: 3514 bfbc 3edf e43d 0686 b43d 09ab d0bd
00000150: a195 80bc a342 c13d 688d 85bd e516 a5bd
00000160: c5e1 063e 538a 3d3d 6813 0d3e 737a 04be
00000170: 4713 99bd bcdb dd3d fd28 8e3d 8769 a6bd
00000180: 6803 74bd 7b05 eabd 4ea6 c73d 720f f63d
00000190: 296c 143d dca3 48bd 2733 d6bd c514 04be
000001a0: 1293 823c 1fbf c5b9 c53e 93bd 1571 45bc
000001b0: 7378 9bbd ef15 b4bd 6536 583c 8611 d2bc
000001c0: 9b42 edbd 672b 13be 9d6e c7bd a596 e5bc
000001d0: 7ac4 c4bd dc4e e83b d327 68bd 0044 4dbd
000001e0: 46bc dfbd f2cb cbbd 9199 87bd 2a7b 503d
000001f0: 6c12 aabd e1a4 613d 2866 be3c 650a bebd
00000200: eb11 2b3c c065 eebd dee8 98bd 2e09 8d3d
00000210: 1570 7abd b065 8fbd 6ffb d13d 18d5 083e
00000220: b1a9 1d3c d67a b3bd 9493 00bb f524 eebd
00000230: 5cc9 3cbd ea0b 443d 22cf efbc 6eb0 8cbd
00000240: 51f7 ff3d dcc1 e9bd 5654 42bc 9793 abbc
00000250: 2a8f 0ebd 5e04 e23d 4834 a63d 246f 493d
00000260: a2ee efbd 0238 e6bd a405 e8bd 76fe acbd
00000270: c7cb 2b3d ef94 063e 0b09 db3d 63fe 19bd
00000280: 2239 ddbd 163f dabd 03ac f6bc 7867 1dbb
00000290: 60cf be3d 3869 cf3d 46ca d6bd 495e 493d
000002a0: 2a08 d5bd 4547 80bd c869 f5ba 3b98 42ba
000002b0: 2062 013d 6f84 9f3d aad7 7dbc d830 b73d
000002c0: bce9 8a3d abb4 0ebd 398a 09be 0fea 333d
000002d0: ec44 89bd 9cbe 3bbd 2961 b13d 7e21 0fbe
000002e0: 4497 86bc 1a58 f53c 3a4e 79bd 8334 c93a
000002f0: 477f b5bd 3547 723c b1e1 c5bd 6e82 a53d
00000300: 3f3d be3d 80a6 82bd d3e8 d3bd d45d e7bd
00000310: 86c6 b1bd 52b5 aa3c f2e3 193c e424 b43d
00000320: f0fa fdbd 4933 18be 1c60 3ebd a37b e23d
00000330: fe94 053d 98f1 36bd 2492 9f3d 2e1c 2dbd
00000340: 9bba a73c 94ac 84bd a3a9 adba d25e 31bd
00000350: 0367 7bbc aad5 e9bd 326f 923d d363 f3bd
00000360: be0d f3bc 18ba 043d bb15 ff3c e019 a9bd
00000370: 2d84 f23d 02d1 01be b547 d8bd 2c6d 743d
00000380: 44f2 12be 26ac 7c3d e253 3c3d b869 11be
00000390: 64c1 5d3d bfee f23d 6648 093d b69e 3bbd
000003a0: c813 6dbb 1556 8fbd 2491 b43d 7257 a43d
000003b0: fb26 2c3d 995e a8bd aa9c fa3d f23c 7bbd
000003c0: c3b7 8ebd 8083 fd3d 0661 f23c a176 4ebd
000003d0: 6dbb 1ebe e587 10be 7631 103c dccf c53d
000003e0: 5064 34bd 54ba 12be 0c3a 21bd 866e eb3d
000003f0: 9161 d03d f002 b83d d449 c13d f499 1dbd

sequential/conv2d/Conv2D_bias f4 [32]
0.0054217195 -0.007941909 0.012980641 -0.01571955 -0.012885862 0.0043659015 -0.0102964295 -0.002785897
-0.0069276793 -0.008295521 -0.023171883 -0.022730364 -0.0036743127 -0.021893252 -0.009002895 0.057707943
0.00613625 -0.007785835 -0.02149894 0.020699058 0.0026525347 -0.0064722123 0.004081154 -0.010574122
-0.005809445 0.005097463 -0.014381308 -0.009798947 0.0056491164 0.0014328819 -0.017624699 -0.020751067
00000000: aea8 b13b c81e 02bc c1ac 543c 49c6 80bc
00000010: 391f 53bc d60f 8f3b 5bb2 28bc 9993 36bb
00000020: 9601 e3bb f0e9 07bc f6d2 bdbc 0735 babc
00000030: bdcc 70bb 7a59 b3bc e180 13bc 2a5f 6c3d
00000040: 9912 c93b 5120 ffbb 8c1e b0bc 1291 a93c
00000050: 26d6 2d3b da14 d4bb 33bb 853b 153f 2dbc
00000060: 285d bebb 9e08 a73b 949f 6bbc c38b 20bc
00000070: 391c b93b 8acf bb3a ac61 90bc 24fe a9bc

sequential/conv2d_1/Conv2D/ReadVariableOp f4 [32, 3, 3, 32]
-0.034782484 0.013022546 -0.018833032 0.08970633 0.06406583 -0.055333663 0.053826287 0.1013519
0.08662422 0.022800464 0.02354755 -0.031694993 0.051867995 -0.026887428 0.021725515 0.12883264
0.068376385 -0.025028514 0.009882827 -0.043559857 0.010450395 -0.019471847 0.048440125 0.034344353
0.064902894 -0.04353809 -0.044257954 -0.042019445 0.10560019 0.0768483 0.10112593 -0.027201416
0.03486823 -0.065155484 0.115949735 -0.03287832 -0.10001527 0.095931895 -0.01720077 -0.011015393
0.08062689 -0.08477586 -0.027131503 0.0041054673 -0.099810846 0.041867245 -0.038317695 -0.04627307
0.0862513 -0.009119681 -0.06295989 0.008016792 0.00045879988 0.0026099514 -0.06028353 -0.03429946
-0.0069952435 0.08148382 -0.10578439 -0.035317246 0.09966649 0.0416096 -0.0768873 0.018153992
0.04013508 0.018395333 0.042781703 -0.08020998 -0.06876979 0.07025664 0.07618374 -0.026698299
-0.095150895 0.0018690499 -0.09568437 -0.0061705788 0.06744134 -0.0044366186 -0.0998632 0.05635078
-0.052270647 0.056363262 0.0021988188 0.043675333 0.033788133 -0.13234818 -0.0867313 0.049891848
-0.044163994 -0.10955275 0.0027199043 0.031967808 0.09322343 -0.048402436 -0.10156687 0.0633717
-0.020848993 0.07863109 -0.011093222 0.09037559 -0.092837475 0.06332914 -0.06918239 -0.04507242
-0.06765401 0.031070527 -0.0059667127 -0.007801992 0.019301673 0.007996474 -0.0487355 0.027395003
-0.077561826 -0.09533866 0.005660765 0.0044851312 -0.003969485 -0.003730285 0.019375704 0.06731767
0.04540704 0.058356956 0.09052652 -0.050742544 0.005188694 0.0074622333 -0.09205848 -0.063120075
-0.06766374 -0.05624978 -0.027069233 0.09141889 0.048587784 -0.060543396 0.051567394 0.033379268
0.09686226 -0.0026397835 -0.015080413 0.08659676 0.01095236 -0.011709799 0.040213175 -0.055820793
-0.110618226 0.021554736 -0.026496561 -0.103676945 -0.05583897 0.014674983 -0.08153378 -0.072730966
0.052836873 -0.048167553 0.03336383 -0.0780143 0.042976014 0.044523362 -0.08639396 0.010325528
0.05217217 0.020313961 0.05743328 0.07828276 0.06917154 0.0061789057 -0.07800797 0.0046864823
-0.029149214 0.07008925 -0.036238663 0.08743684 0.087951325 -0.03530821 -0.050567787 0.03286494
0.07215727 0.00437578 0.03737478 -0.06676615 -0.056612436 -0.019401977 0.06394053 -0.007455841
-0.09097489 0.055334914 -0.074359335 0.06921348 -0.027015515 -0.0636002 0.021746809 0.05430738
-0.06700034 -0.07567843 -0.0037882114 -0.053869873 0.096558064 -0.0031180417 -0.0824037 0.091087505
-0.04321811 0.0112545695 -0.08079002 0.010321905 -0.054344043 -0.06399203 -0.10894035 -0.03703898
0.08898707 -0.095735826 -0.06805434 0.11196424 0.08152639 -0.031837907 -0.0797889 -0.091673
-0.077704266 -0.0050668623 0.05647201 0.07025156 0.006849028 0.0546522 0.06662138 -0.09578845
-0.065791264 -0.021590574 0.09905326 0.020655507 -0.050555125 -0.094456725 -0.10526011 0.03125009
-0.05346187 0.08630536 -0.04421015 0.037673894 -0.050286397 0.045522768 -0.10363181 0.05672423
0.1008478 0.042286374 -0.055820733 0.040478036 0.041734096 0.0753997 -0.057253372 0.10546858
-0.045781597 -0.06938093 0.07616924 -0.009486251 -0.03381558 0.05394885 0.00712574 -0.00079721876
00000000: 1478 0ebd 845c 553c bb47 9abc f4b7 b73d
00000010: f234 833d 8da5 62bd f478 5c3d 9691 cf3d
00000020: 0a68 b13d 0ac8 ba3c cbe6 c03c 9cd2 01bd
00000030: 8973 543d 0643 dcbc b5f9 b13c b4ec 033e
00000040: eb08 8c3d 9908 cdbc 95eb 213c d26b 32bd
00000050: 2238 2b3c 6c83 9fbc 2769 463d aaac 0c3d
00000060: cfeb 843d ff54 32bd d447 35bd 951c 2cbd
00000070: ea44 d83d a462 9d3d 1d1b cf3d 81d5 debc
00000080: fdd1 0e3d 3d70 85bd 0e77 ed3d 6bab 06bd
00000090: ced4 ccbd f177 c43d a1e8 8cbc e879 34bc
000000a0: b61f a53d f79e adbd e342 debc 2887 863b
000000b0: a169 ccbd fd7c 2b3d 04f3 1cbd d588 3dbd
000000c0: 86a4 b03d b76a 15bc 1df1 80bd dd58 033c
000000d0: 148b f039 b80b 2b3b ddeb 76bd 977d 0cbd
000000e0: 5b38 e5bb fde0 a63d 7ca5 d8bd d1a8 10bd
000000f0: f21d cc3d d46e 2a3d 1777 9dbd aeb7 943c
00000100: af64 243d cfb1 963c de3b 2f3d 2145 a4bd
00000110: 2dd7 8cbd b7e2 8f3d 3806 9c3d 64b6 dabc
00000120: 79de c2bd e8fa f43a 2bf6 c3bd 9132 cabb
00000130: af1e 8a3d 0e61 91bb 1485 ccbd 13d0 663d
00000140: bf19 56bd 2add 663d 0f1a 103b e8e4 323d
00000150: 6d65 0a3d 4886 07be 2ea0 b1bd 655b 4c3d
00000160: 4ee5 34bd 315d e0bd 6c40 323b adf0 023d
00000170: edeb be3d a241 46bd 4b02 d0bd 06c9 813d
00000180: 82cb aabc 5609 a13d 58c0 35bc d616 b93d
00000190: 9321 bebd b5b2 813d 7faf 8dbd dc9d 38bd
000001a0: 308e 8abd 9e87 fe3c 6a84 c3bb daa7 ffbb
000001b0: 8b1e 9e3c a503 033c e09e 47bd 7c6b e03c
000001c0: bcd8 9ebd ea40 c3bd f07d b93b 02f8 923b
000001d0: 7412 82bb cc77 74bb ccb9 9e3c d9dd 893d
000001e0: bbfc 393d b407 6f3d f865 b93d 6ad7 4fbd
000001f0: ec05 aa3b c085 f43b 2889 bcbd 1945 81bd
00000200: 4993 8abd 2b66 66bd 4cc0 ddbc d439 bb3d
00000210: fc03 473d 5afc 77bd 5538 533d b3b8 083d
00000220: b85f c63d 3800 2dbb d613 77bc a459 b13d
00000230: 8771 333c 75da 3fbc 92b6 243d 58a4 64bd
00000240: cf8b e2bd 8f93 b03c 510f d9bc 9454 d4bd
00000250: 67b7 64bd 576f 703c 2ffb a6bd f9f3 94bd
00000260: 7a6b 583d 574b 45bd 83a8 083d f6c5 9fbd
00000270: 9e07 303d 215e 363d 51ef b0bd 672c 293c
00000280: 7cb2 553d 7769 a63c 293f 6b3d b652 a03d
00000290: cfa9 8d3d 6b78 ca3b a4c2 9fbd 1091 993b
000002a0: 55ca eebc f48a 8f3d fe6e 14bd 1612 b33d
000002b0: d31f b43d 579f 10bd 2b20 4fbd 639d 063d
000002c0: 31c7 933d b462 8f3b 4c16 193d b1bc 88bd
000002d0: 71e2 67bd e5f0 9ebc 41f3 823d 2150 f4bb
000002e0: 0b51 babd dda6 623d b549 98bd ccbf 8d3d
000002f0: a44f ddbc d240 82bd 5d26 b23c 6a71 5e3d
00000300: 7937 89bd 4bfd 9abd a443 78bb a8a6 5cbd
00000310: 3cc0 c53d 0f58 4cbb 45c3 a8bd 168c ba3d
00000320: 7905 31bd 1665 383c 3d75 a5bd 351d 293c
00000330: dc97 5ebd 410e 83bd 1e1c dfbd 2fb6 17bd
00000340: da3e b63d 2511 c4bd 1360 8bbd 824d e53d
00000350: 4ff7 a63d 7768 02bd 5d68 a3bd 0ebf bbbd
00000360: 6a23 9fbd ec07 a6bb 324f 673d 0de0 8f3d
00000370: d06d e03b fcda 5f3d ca70 883d bc2c c4bd
00000380: 92bd 86bd b7de b0bc 70dc ca3d bd35 a93c
00000390: e412 4fbd 8772 c1bd 9d92 d7bd 1800 003d
000003a0: d5fa 5abd ddc0 b03d b415 35bd f14f 1a3d
000003b0: 1cf9 4dbd 1576 3a3d ea3c d4bd ab57 683d
000003c0: 4b89 ce3d 7a34 2d3d 48a4 64bd 4ccc 253d
000003d0: 5ff1 2a3d 286b 9a3d 8382 6abd e9ff d73d
000003e0: 7c85 3bbd 9717 8ebd 9efe 9b3d 386c 1bbc
000003f0: 3582 0abd 78f9 5c3d 0a7f e93b 72fc 50ba

sequential/conv2d_1/Conv2D_bias f4 [32]
0.008130389 -0.0138781415 0.015595659 -0.006009062 -0.015418272 0.01597058 0.012621441 -0.0016538091
0.022915797 -0.011080596 0.010939596 -0.016297035 0.017643731 -0.012361233 0.0031203325 -0.014865122
0.010008245 -0.008806951 -0.008689911 -0.0016842497 0.0069942484 0.016278923 0.018347353 0.024328193
-0.011092281 -0.009985307 -0.0029272859 -0.014945883 0.0250783 0.015451431 -0.008091431 0.0003479095
00000000: 5335 053c 2561 63bc ef84 7f3c aae7 c4bb
00000010: ec9c 7cbc bcd4 823c 29ca 4e3c a0c4 d8ba
00000020: e9b9 bb3c 638b 35bc fe3b 333c 5c81 85bc
00000030: 9689 903c c586 4abc 7e7e 4c3b d78c 73bc
00000040: 9ff9 233c 084b 10bc 2160 0ebc 0bc2 dcba
00000050: 0230 e53b 605b 853c 304d 963c eb4b c73c
00000060: 66bc 35bc 6a99 23bc b5d7 3fbb 94df 74bc
00000070: 0271 cd3c 0028 7d3c ec91 04bc 9f67 b639

sequential/dense/MatMul/ReadVariableOp/transpose f4 [128, 32]
0.14482369 -0.12715861 -0.123901635 -0.0035173784 -0.088415034 0.010919899 -0.041056186 -0.03923719
-0.16895282 -0.18869215 0.038401805 -0.15772912 -0.1386693 0.07389445 0.12190613 0.19174413
-0.074262634 0.0027632685 0.17950624 0.1862786 -0.07409147 0.11189698 -0.111888796 -0.15854463
-0.18377611 -0.01830616 0.18292731 -0.02891629 0.05031129 -0.04952306 -0.17070013 0.16998528
-0.12933718 -0.15127954 -0.1348095 -0.014679388 0.13972336 0.17070326 -0.100097984 0.1774802
0.12067967 -0.06112505 -0.05960371 0.022843797 0.024281785 -0.027529981 0.17828241 0.1589603
-0.02479866 -0.16392928 -0.08786847 0.10329395 -0.1319813 0.0068676756 -7.918638e-05 -0.14692943
-0.113222644 0.044215143 -0.15395941 -0.021842534 -0.11274784 0.010647759 -0.17984034 0.10966784
-0.012694254 0.20332412 0.010165244 0.03734518 -0.026301466 0.07217755 0.015349239 -0.07471979
-0.17850065 -0.1790374 -0.105315514 0.07244286 -0.0076561286 -0.17699715 -0.112833835 0.018828105
-0.06737997 -0.017175408 -0.024845779 -0.11623178 -0.058254108 -0.084169 -0.06530479 -0.055018544
0.08849137 0.03131077 0.0058707413 -0.07562863 -0.092050485 0.17603323 0.2038621 -0.18427911
-0.060342662 0.037252564 0.07863061 -0.16266292 0.15610561 0.03289817 0.20171179 0.048579056
0.06460943 0.03623788 -0.1124186 0.16328767 0.02733115 -0.059442427 -0.14438905 -0.086965196
0.14696127 -0.17645425 -0.005558947 0.16070843 0.16546202 -0.045554046 0.0056914575 0.1361472
0.118083075 0.15211175 0.0144676855 0.015077178 -0.026870416 0.05786055 -0.039744154 -0.09508305
0.106298506 -0.08923057 -0.13994168 0.13009952 0.06589427 0.031652294 0.15800446 0.16094899
0.023989249 0.16882141 0.09701401 -0.16561045 0.017135052 0.0114330035 0.10598083 0.17550488
0.17897108 -0.011497988 -0.15801558 -0.0004523745 0.041268103 -0.09194 -0.12938099 -0.14286223
-0.018073512 -0.098181106 -0.039046355 0.11397735 -0.14015314 -0.117355585 0.053984895 -0.027835626
0.17126496 -0.0798612 0.0998288 0.18724039 -0.17410952 -0.11994701 -0.050138794 0.02772224
-0.166434 0.1006847 0.006288505 0.19180316 0.029262327 -0.061130818 0.03464504 0.07568424
0.18602896 0.18376206 0.02937813 -0.09168912 0.16976447 -0.13943446 -0.017776394 0.15738006
0.16972043 0.045384184 0.0059383484 -0.06581767 -0.16248292 0.11252865 0.08682681 0.1513991
0.13664716 0.10790597 -0.16043784 0.10731158 0.14534521 0.022875153 -0.021581734 -0.033745352
-0.04733214 0.15202363 -0.12538435 -0.19390792 0.1266516 -0.17049617 -0.17583244 0.12291966
-0.15140249 0.084355935 0.011372677 0.18637215 0.17223144 -0.054410342 -0.060964826 -0.11888361
-0.05842324 0.101161964 0.0910625 0.050254412 0.047670458 0.06237634 -0.02394777 0.09299759
0.09912122 -0.17096062 -0.017947719 0.13827956 -0.15445565 0.014435482 0.111763544 -0.0678422
0.059909105 -0.16357967 -0.1548376 0.17943513 -0.13701083 -0.045100972 0.06502335 -0.093537405
-0.18060833 0.061501563 -0.047115758 0.08629468 0.12455878 0.14133403 -0.015711475 -0.18253401
-0.037400767 -0.028757147 0.08780551 0.033613563 0.014857911 -0.16533741 -0.11455031 -0.017476663
00000000: a94c 143e de35 02be 24c0 fdbd d183 66bb
00000010: f112 b5bd 60e9 323c 882a 28bd 2db7 20bd
00000020: f801 2dbe 8438 41be 364b 1d3d be83 21be
00000030: 53ff 0dbe f955 973d eca9 f93d 9358 443e
00000040: 0217 98bd f417 353b 7cd0 373e d1bf 3e3e
00000050: 45bd 97bd 3e2a e53d f425 e5bd 8659 22be
00000060: ce2f 3cbe cdf6 95bc 4c51 3b3e dbe1 ecbc
00000070: 3613 4e3d b1d8 4abd 04cc 2ebe 9f10 2e3e
00000080: f770 04be 06e9 1abe 800b 0abe d181 70bc
00000090: a413 0f3e d6cc 2e3e 2c00 cdbd 5fbd 353e
000000a0: e726 f73d 435e 7abd 0523 74bd ea22 bb3c
000000b0: 98ea c63c 8e86 e1bc aa8f 363e 7dc6 223e
000000c0: 8f26 cbbc 14dd 27be 62f4 b3bd c78b d33d
000000d0: 1b26 07be 3d0a e13b dd10 a6b8 ab74 16be
000000e0: 46e1 e7bd f01a 353d 89a7 1dbe 1def b2bc
000000f0: 57e8 e6bd f073 2e3c 1128 38be 8899 e03d
00000100: 8ffb 4fbc 3334 503e 208c 263c 42f7 183d
00000110: 2c76 d7bc d3d1 933d 607b 7b3c b006 99bd
00000120: e0c8 36be 9555 37be a9af d7bd ec5c 943d
00000130: 43e0 fabb be3e 35be 6d15 e7bd 663d 9a3c
00000140: 82fe 89bd 71b3 8cbc 6089 cbbc ed0a eebd
00000150: dc9b 6ebd cc60 acbd 85be 85bd 205b 61bd
00000160: f73a b53d b93f 003d 595f c03b 2fe3 9abd
00000170: f784 bcbd 0e42 343e 3ac1 503e aab3 3cbe
00000180: de29 77bd 2596 183d 1609 a13d 1c91 26be
00000190: 26da 1f3e 3bc0 063d 898d 4e3e d5fa 463d
000001a0: f351 843d 2c6e 143d b93b e6bd e234 273e
000001b0: 93e5 df3c e779 73bd b9da 13be cf1a b2bd
000001c0: 047d 163e 6cb0 34be d427 b6bb c090 243e
000001d0: e06e 293e e196 3abd 687f ba3b 2c6a 0b3e
000001e0: 8ad5 f13d 2fc3 1b3e df09 6d3c 4506 773c
000001f0: 591f dcbc 2fff 6c3d c4ca 22bd e7ba c2bd
00000200: 08b3 d93d 84be b6bd df4c 0fbe cf38 053e
00000210: 93f3 863d d6a5 013d eccb 213e d0cf 243e
00000220: 1a85 c43c 85df 2c3e 48af c63d c995 29be
00000230: cf5e 8c3c 7e51 3b3c 7a0c d93d 8db7 333e
00000240: 3244 373e 0f62 3cbc d6ce 21be ad2c edb9
00000250: be08 293d 0a4b bcbd 737c 04be 7a4a 12be
00000260: e70e 94bc 2d13 c9bd 12ef 1fbd f56c e93d
00000270: 4e84 0fbe 2058 f0bd 441f 5d3d 8a07 e4bc
00000280: 1560 2f3e 458e a3bd 0b73 cc3d f2bb 3f3e
00000290: c449 32be c7a6 f5bd 565e 4dbd c019 e33c
000002a0: ad6d 2abe c833 ce3d ce0f ce3b 0c68 443e
000002b0: 8cb7 ef3c 4f64 7abd f5e7 0d3d 5700 9b3d
000002c0: 607e 3e3e 1f2c 3c3e 67aa f03c 81c7 bbbd
000002d0: bdd6 2d3e e8c7 0ebe cd9f 91bc 3d28 213e
000002e0: 31cb 2d3e c4e4 393d 7a96 c23b 6acb 86bd
000002f0: ec61 26be 6c75 e63d 41d2 b13d 5e08 1b3e
00000300: 3ced 0b3e cefd dc3d d149 24be 2cc6 db3d
00000310: 60d5 143e ac64 bb3c 2dcc b0bc 9138 0abd
00000320: 59df 41bd 15ac 1b3e c164 00be cc8f 46be
00000330: f5b0 013e 8c96 2ebe 6b0d 34be 4dbd fb3d
00000340: 4109 1bbe cec2 ac3d 7754 3a3c 57d8 3e3e
00000350: 705d 303e 61dd 5ebd 41b6 79bd 4079 f3bd
00000360: 354d 6fbd 012e cf3d fa7e ba3d 92d7 4d3d
00000370: 1942 433d 557e 7f3d 1d2e c4bc 8575 be3d
00000380: 1100 cb3d 4d10 2fbe 1807 93bc 2899 0d3e
00000390: 9f29 1ebe cd82 6c3c 49e4 e43d daf0 8abd
000003a0: 4063 753d 6e81 27be bf8d 1ebe d8bd 373e
000003b0: 914c 0cbe ccbb 38bd f62a 853d 8a90 bfbd
000003c0: 64f1 38be 10e9 7b3d 74fc 40bd 44bb b03d
000003d0: ac18 ff3d deb9 103e 5ab5 80bc 32ea 3abe
000003e0: 8c31 19bd 1c94 ebbc 60d3 b33d 60ae 093d
000003f0: 986e 733c 364e 29be 5a99 eabd 382b 8fbc

sequential/dense/MatMul_bias f4 [128]
0.0059144874 -0.0070939055 0.012034479 0.0054436424 -0.008456983 0.0068604457 -0.004554109 -0.007896752
-0.012327702 0.010002006 0.0069935066 0.0022216283 0.0015510172 -0.017202323 0.00785911 -0.013628803
-0.008537436 0.0 -0.016472312 0.0 -0.0041818153 0.017600786 0.013078898 0.0
-0.0002597211 0.01002604 -0.005689601 -0.0036581159 -0.0013541186 0.0009052629 -0.018602608 0.012057836
0.016506467 -0.008560702 0.012475085 -0.018548442 0.0 -0.0084218485 -0.0030504537 -0.017951583
-0.011314393 -0.00836142 0.007282453 -0.00084236066 -0.009934922 0.0017938127 0.00076479797 -0.008126812
0.0091215195 0.005336087 -0.01351669 -0.017769368 -0.00429606 0.014000487 -0.020561503 0.020526703
0.017180223 0.011311402 -0.007219571 0.0 -0.0072619496 0.0050648227 -0.006171595 -0.008448601
0.0074327094 0.0078890035 0.00846636 0.008370631 -0.009028913 -0.006334891 0.0012141662 0.008833397
0.005839747 -0.008905718 0.0077970424 -0.011275821 -0.006917106 0.0 -4.322947e-05 0.032050405
-0.01058228 0.005715831 0.009996866 -0.0055552637 -0.008367311 -0.019857759 0.008622846 -0.0081069395
0.0063207964 0.025370704 0.0 0.0116642285 -0.005150178 -0.011159128 0.0010984441 -0.0076404368
-0.008552298 0.0026933616 0.0134247355 -0.0060285563 -0.005323658 0.007778283 -0.0010155946 -0.0020646458
-0.005989627 0.015328625 0.013727552 -0.008349053 -0.0030312776 0.0055993767 -0.005499212 -0.0025153004
0.0057686735 -0.0074832127 -0.00041379346 0.007887833 -0.016266843 0.00968866 -0.008422046 -0.0073550395
-0.008210503 0.005933059 -0.004140942 0.01942211 -0.004260924 0.0 -0.008505658 0.021083223
00000000: 51ce c13b fe73 e8bb 432c 453c 9560 b23b
00000010: 288f 0abc 97cd e03b a33a 95bb 6161 01bc
00000020: 21fa 49bc 74df 233c c929 e53b bd98 113b
00000030: 804b cb3a e3eb 8cbc 7fc3 003c 584b 5fbc
00000040: 9ae0 0bbc 0000 0000 f1f0 86bc 0000 0000
00000050: 9c07 89bb 862f 903c e048 563c 0000 0000
00000060: 2d2b 88b9 4244 243c d56f babb 00bd 6fbb
00000070: ae7c b1ba 2a4f 6d3a 7f64 98bc 3b8e 453c
00000080: 9238 873c 3042 0cbc 4d64 4c3c e7f2 97bc
00000090: 0000 0000 cbfb 09bc 1fea 47bb 330f 93bc
000000a0: 0160 39bc 56fe 08bc a5a1 ee3b ded1 5cba
000000b0: 15c6 22bc 5e1e eb3a b97c 483a 5226 05bc
000000c0: 6d72 153c 58da ae3b 1b75 5dbc 1191 91bc
000000d0: f7c5 8cbb 4c62 653c 9970 a8bc 9e27 a83c
000000e0: 8abd 8c3c 7553 393c 2792 ecbb 0000 0000
000000f0: a6f5 edbb d0f6 a53b 173b cabb 006c 0abc
00000100: 168e f33b e140 013c 7db6 0a3c f924 093c
00000110: 02ee 13bc eb94 cfbb a824 9f3a f4b9 103c
00000120: 595b bf3b 4ae9 11bc 557e ff3b 39be 38bc
00000130: e4a8 e2bb 0000 0000 4a51 35b8 4947 033d
00000140: 4d61 2dbc de4b bb3b e5c9 233c ee08 b6bb
00000150: 0c17 09bc bdac a2bc d646 0d3c f8d2 04bc
00000160: af1e cf3b 39d6 cf3c 0000 0000 521b 3f3c
00000170: d3c2 a8bb c6d4 36bc abf9 8f3a a15c fabb
00000180: f01e 0cbc 1c83 303b 6cf3 5b3c 328b c5bb
00000190: 1572 aebb f8e0 fe3b b31d 85ba 024f 07bb
000001a0: a244 c4bb ea24 7b3c 87e9 603c 77ca 08bc
000001b0: 66a8 46bb fa7a b73b bc32 b4bb bdd7 24bb
000001c0: 2407 bd3b bd35 f5bb 6bf2 d8b9 f83b 013c
000001d0: 0b42 85bc 2fbd 1e3c 9ffc 09bc 8b02 f1bb
000001e0: 5885 06bc 1b6a c23b bdb0 87bb 1e1b 9f3c
000001f0: 399f 8bbb 0000 0000 515b 0bbc b9b6 ac3c

sequential/dense_1/MatMul/ReadVariableOp/transpose f4 [1, 128]
-0.16885951 0.172549 0.07009066 0.11414266 0.04339391 -0.052112505 -0.13709523 -0.15854788
0.16289565 -0.06038313 -0.20379822 0.073568754 0.1755644 -0.0021635501 -0.1253697 0.17202163
0.12559469 -0.01218237 0.10420025 0.2064195 0.18215604 -0.15804766 -0.116157405 -0.07389809
-0.08209929 -0.19835506 -0.03461379 0.10960084 -0.12915874 0.09121976 0.20510063 -0.03516264
-0.19687505 0.06672848 -0.03264649 0.0663385 0.108655006 0.08748021 0.15825944 0.034126792
0.010413331 0.06987831 -0.034281094 0.1004179 -0.20423453 0.08919353 -0.07520062 0.17871141
-0.05533835 -0.09774794 -0.0033313206 0.04418279 0.019300148 -0.082658 -0.18177745 -0.20349815
-0.05864367 -0.1171851 -0.044512667 0.064507246 0.1959858 -0.080037005 0.1942624 0.15941183
-0.029858897 -0.16139354 -0.22450285 -0.101721734 0.19250071 0.12583856 0.019784946 -0.14689806
-0.1986501 0.076888524 -0.13319375 -0.12899135 0.20487529 0.029748589 -0.05079924 -0.062326856
0.12609877 -0.036685675 0.061592065 -0.15399766 0.08212224 0.0060271625 -0.016701926 0.0097925635
0.16399743 -0.21965218 0.03991431 -0.06457348 0.19247441 0.02881631 0.13388793 -0.09727757
0.21164139 -0.023670336 -0.06342719 0.20040801 0.1463838 -0.12210968 0.10972557 0.20437278
0.07081984 -0.21913548 -0.17421162 0.07651504 0.17518185 -0.045739073 -0.042487364 0.011425143
-0.08946092 0.02813802 -0.17829895 -0.16619103 -0.1382609 -0.05653827 0.06919585 0.048767276
0.08146554 0.026475608 0.05328709 -0.23358457 0.18065216 -0.1302816 -0.08469544 -0.090822875
00000000: 82e9 2cbe afb0 303e b18b 8f3d a0c3 e93d
00000010: d0bd 313d ec73 55bd b162 0cbe 605a 22be
00000020: 1ece 263e 4d54 77bd 7bb0 50be 37ab 963d
00000030: 27c7 333e 59ca 0dbb ea60 00be 7026 303e
00000040: e59b 003e 9098 47bc f166 d53d a25f 533e
00000050: 1d87 3a3e 3fd7 21be efe3 edbd e257 97bd
00000060: ac23 a8bd 971d 4bbe 31c7 0dbd 6876 e03d
00000070: 3042 04be 6dd1 ba3d e605 523e b306 10bd
00000080: 9d99 49be f1a8 883d 53b8 05bd 7bdc 873d
00000090: 8486 de3d d328 b33d c30e 223e 89c8 0b3d
000000a0: ad9c 2a3c 5c1c 8f3d 556a 0cbd e6a7 cd3d
000000b0: db22 51be 19ab b63d c802 9abd 2000 373e
000000c0: 77aa 62bd 1230 c8bd 4952 5abb 03f9 343d
000000d0: 581b 9e3c 9948 a9bd de23 3abe d261 50be
000000e0: 5834 70bd befe efbd ea52 36bd 601c 843d
000000f0: 80b0 483e 71ea a3bd b9ec 463e db3c 233e
00000100: a59a f4bc 5944 25be 13e4 65be 7c53 d0bd
00000110: e81e 453e d3db 003e 0a14 a23c 726c 16be
00000120: ef6a 4bbe bb77 9d3d f163 08be 4f16 04be
00000130: d4ca 513e 50b3 f33c dd12 50bd 724a 7fbd
00000140: 0920 013e b843 16bd f647 7c3d 90b1 1dbe
00000150: b42f a83d 817f c53b 7ad2 88bc fd70 203c
00000160: f1ee 273e 80ec 60be 307d 233d 1a3f 84bd
00000170: 0318 453e 2f10 ec3c eb19 093e 7639 c7bd
00000180: 85b8 583e 4be8 c1bc 1de6 81bd c237 4d3e
00000190: a3e5 153e a414 fabd cdb7 e03d 1947 513e
000001a0: fe09 913d 0d65 60be 8864 32be ebb3 9c3d
000001b0: df62 333e e558 3bbd 3b07 2ebd 8630 3b3c
000001c0: 4937 b7bd b481 e63c 0094 36be fb2d 2abe
000001d0: 4494 0dbe ac94 67bd 8eb6 8d3d 32c0 473d
000001e0: 68d7 a63d 60e3 d83c 9043 5a3d cb30 6fbe
000001f0: e1fc 383e 8a68 05be ce74 adbd 5801 babd
