Quantization/post-quantization-training/catvsdog_integer_quant.tflite (tflite, 20416 bytes, 4 tensors)

sequential/conv2d/Conv2D/ReadVariableOp i1 [32, 3, 3, 3]
00000000: d011 f6ca 60f0 c8fb 407c 2c45 b77f 97f6
00000010: bad0 97e5 64c8 33b8 184d d42d ca6b 1e97
00000020: 7694 a9e2 b290 e2b7 ea74 0142 472b 400f
00000030: 810b a454 71af b6e5 5093 3c7f 01cb d0dc
00000040: bc56 2ce0 8478 12ca a296 ab41 0e63 f4fb
00000050: eb67 51a2 f257 c4b6 792b 7f89 bb64 40b5
00000060: c997 5a6f 21d3 a089 0f00 bef5 bdb2 0ce9
00000070: 9a81 aae7 ab06 ced4 9fa8 c52d b731 15ae
00000080: 0999 be3d cac2 5b7f 09ad fe91 d42d e4bf
00000090: 7794 f5ec df69 4d2f 9195 94b0 287d 66dc
000000a0: 999b e5fe 555c a12d a1c7 feff 1d47 f251
000000b0: 3ee0 8628 c3d6 4f81 f11b c901 af0d ad45
000000c0: 4fc9 a89f b612 084b 9681 d85e 1cda 43dc
000000d0: 11c9 ffdb f39e 3d9a e61d 1cb7 6990 a335
000000e0: 8137 2982 3069 1ed7 fdc2 4e47 25b7 6cca
000000f0: c26e 1ad7 818c 074f dc8b e05e 534a 4de0
-48 17 -10 -54 96 -16 -56 -5
64 124 44 69 -73 127 -105 -10
-70 -48 -105 -27 100 -56 51 -72
24 77 -44 45 -54 107 30 -105
118 -108 -87 -30 -78 -112 -30 -73
-22 116 1 66 71 43 64 15
-127 11 -92 84 113 -81 -74 -27
80 -109 60 127 1 -53 -48 -36
-68 86 44 -32 -124 120 18 -54
-94 -106 -85 65 14 99 -12 -5
-21 103 81 -94 -14 87 -60 -74
121 43 127 -119 -69 100 64 -75
-55 -105 90 111 33 -45 -96 -119
15 0 -66 -11 -67 -78 12 -23
-102 -127 -86 -25 -85 6 -50 -44
-97 -88 -59 45 -73 49 21 -82
9 -103 -66 61 -54 -62 91 127
9 -83 -2 -111 -44 45 -28 -65
119 -108 -11 -20 -33 105 77 47
-111 -107 -108 -80 40 125 102 -36
-103 -101 -27 -2 85 92 -95 45
-95 -57 -2 -1 29 71 -14 81
62 -32 -122 40 -61 -42 79 -127
-15 27 -55 1 -81 13 -83 69
79 -55 -88 -97 -74 18 8 75
-106 -127 -40 94 28 -38 67 -36
17 -55 -1 -37 -13 -98 61 -102
-26 29 28 -73 105 -112 -93 53
-127 55 41 -126 48 105 30 -41
-3 -62 78 71 37 -73 108 -54
-62 110 26 -41 -127 -116 7 79
-36 -117 -32 94 83 74 77 -32

sequential/conv2d_1/Conv2D/ReadVariableOp i1 [32, 3, 3, 32]
00000000: df0c ee56 3dcb 3461 5316 17e2 32e6 157c
00000010: 42e8 09d6 0aed 2e21 3ed6 d6d8 654a 61e6
00000020: 21c1 6fe0 a05c eff5 4daf e604 a028 dbd4
00000030: 53f7 c408 0003 c6df f94e 9ade 6028 b611
00000040: 2712 29b3 be43 49e6 a502 a4fa 41fc a036
00000050: ce36 022a 2081 ad30 d697 031f 59d2 9f3d
00000060: ec4b f557 a73d bed5 bf1e faf9 1308 d11a
00000070: b6a5 0504 fcfc 1341 2c38 57cf 0507 a8c3
00000080: bfca e658 2fc6 3120 5dfd f253 0bf5 27ca
00000090: 9615 e79d ca0e b2ba 33d2 20b5 292b ad0a
000000a0: 3213 374b 4206 b504 e443 dd54 54de cf20
000000b0: 4504 24c0 caed 3df9 a935 b942 e6c3 1534
000000c0: c0b7 fccc 5dfd b157 d70b b20a ccc3 97dc
000000d0: 55a4 bf6b 4ee1 b3a8 b5fb 3643 0734 40a4
000000e0: c1eb 5f14 cfa5 9b1e cd53 d624 d02c 9d36
000000f0: 6129 ca27 2848 c965 d4bd 49f7 e034 07ff
-33 12 -18 86 61 -53 52 97
83 22 23 -30 50 -26 21 124
66 -24 9 -42 10 -19 46 33
62 -42 -42 -40 101 74 97 -26
33 -63 111 -32 -96 92 -17 -11
77 -81 -26 4 -96 40 -37 -44
83 -9 -60 8 0 3 -58 -33
-7 78 -102 -34 96 40 -74 17
39 18 41 -77 -66 67 73 -26
-91 2 -92 -6 65 -4 -96 54
-50 54 2 42 32 -127 -83 48
-42 -105 3 31 89 -46 -97 61
-20 75 -11 87 -89 61 -66 -43
-65 30 -6 -7 19 8 -47 26
-74 -91 5 4 -4 -4 19 65
44 56 87 -49 5 7 -88 -61
-65 -54 -26 88 47 -58 49 32
93 -3 -14 83 11 -11 39 -54
-106 21 -25 -99 -54 14 -78 -70
51 -46 32 -75 41 43 -83 10
50 19 55 75 66 6 -75 4
-28 67 -35 84 84 -34 -49 32
69 4 36 -64 -54 -19 61 -7
-87 53 -71 66 -26 -61 21 52
-64 -73 -4 -52 93 -3 -79 87
-41 11 -78 10 -52 -61 -105 -36
85 -92 -65 107 78 -31 -77 -88
-75 -5 54 67 7 52 64 -92
-63 -21 95 20 -49 -91 -101 30
-51 83 -42 36 -48 44 -99 54
97 41 -54 39 40 72 -55 101
-44 -67 73 -9 -32 52 7 -1

sequential/dense/MatMul/ReadVariableOp/transpose i1 [128, 32] scale=0.0017735786 zero_point=0
00000000: 52b8 bafe ce06 e9ea a196 16a7 b22a 456c
00000010: d602 6569 d63f c1a7 98f6 67f0 1ce4 a060
00000020: b7ab b4f8 4f60 c864 44de de0d 0ef0 655a
00000030: f2a4 ce3a b604 00ad c019 a9f4 c006 9b3e
00000040: f973 0615 f129 09d6 9b9b c529 fc9c c00b
00000050: daf6 f2be dfd1 dbe1 3212 03d5 cc63 7398
00000060: de15 2ca4 5813 721b 2414 c15c 0fde afcf
00000070: 539d fd5b 5de6 034d 4356 0809 f121 eaca
00000080: 3cce b149 2512 595b 0e5f 37a3 0a06 3c63
00000090: 65fa a700 17cc b7af f6c9 ea40 b1be 1ef0
000000a0: 61d3 386a 9ebc e410 a239 046c 10de 142b
000000b0: 6968 11cc 60b1 f659 601a 03db a43f 3155
000000c0: 4d3d a63d 520d f4ed e556 b993 47a0 9d45
000000d0: ab30 0669 61e1 debd df39 331c 1b23 f234
000000e0: 38a0 f64e a908 3fda 22a4 a965 b3e7 25cb
000000f0: 9a23 e531 4650 f799 ebf0 3213 08a3 bff6
0.14543344 -0.12769766 -0.1241505 -0.0035471572 -0.088678926 0.0106414715 -0.04079231 -0.039018728
-0.16848996 -0.18799932 0.039018728 -0.15784849 -0.13833913 0.0744903 0.12237692 0.19154648
-0.0744903 0.0035471572 0.17913143 0.18622576 -0.0744903 0.11173545 -0.11173545 -0.15784849
-0.18445218 -0.017735787 0.1826786 -0.028377257 0.0496602 -0.0496602 -0.17026354 0.17026354
-0.12947124 -0.15075418 -0.13479197 -0.014188629 0.14011271 0.17026354 -0.0993204 0.17735785
0.120603345 -0.060301673 -0.060301673 0.023056522 0.0248301 -0.028377257 0.17913143 0.15962207
-0.0248301 -0.16316923 -0.088678926 0.10286756 -0.13124481 0.0070943143 0.0 -0.14720702
-0.11350903 0.044339463 -0.15430133 -0.021282943 -0.11350903 0.0106414715 -0.17913143 0.109961875
-0.01241505 0.20396154 0.0106414715 0.03724515 -0.026603678 0.07271672 0.015962208 -0.0744903
-0.17913143 -0.17913143 -0.10464114 0.07271672 -0.0070943143 -0.17735785 -0.11350903 0.019509364
-0.067395985 -0.017735787 -0.0248301 -0.11705618 -0.05852809 -0.08335819 -0.065622404 -0.054980937
0.088678926 0.031924415 0.0053207357 -0.07626388 -0.09222609 0.17558429 0.20396154 -0.18445218
-0.060301673 0.03724515 0.078037456 -0.16316923 0.15607491 0.033697993 0.20218796 0.04788662
0.06384883 0.035471573 -0.11173545 0.16316923 0.026603678 -0.060301673 -0.14365986 -0.08690535
0.14720702 -0.17558429 -0.0053207357 0.16139565 0.1649428 -0.046113044 0.0053207357 0.13656555
0.118829764 0.15252776 0.014188629 0.015962208 -0.026603678 0.05852809 -0.039018728 -0.09577324
0.10641471 -0.088678926 -0.14011271 0.12947124 0.065622404 0.031924415 0.15784849 0.16139565
0.0248301 0.16848996 0.09754682 -0.1649428 0.017735787 0.0106414715 0.10641471 0.17558429
0.17913143 -0.0106414715 -0.15784849 0.0 0.04079231 -0.09222609 -0.12947124 -0.14365986
-0.017735787 -0.09754682 -0.039018728 0.11350903 -0.14011271 -0.11705618 0.053207356 -0.028377257
0.17203712 -0.07981104 0.0993204 0.18799932 -0.1738107 -0.120603345 -0.0496602 0.028377257
-0.16671638 0.10109398 0.0070943143 0.19154648 0.028377257 -0.060301673 0.035471573 0.07626388
0.18622576 0.18445218 0.030150836 -0.09222609 0.17026354 -0.14011271 -0.017735787 0.15784849
0.17026354 0.046113044 0.0053207357 -0.065622404 -0.16316923 0.11173545 0.08690535 0.15075418
0.13656555 0.108188294 -0.15962207 0.108188294 0.14543344 0.023056522 -0.021282943 -0.033697993
-0.04788662 0.15252776 -0.12592408 -0.19332007 0.12592408 -0.17026354 -0.17558429 0.12237692
-0.15075418 0.08513177 0.0106414715 0.18622576 0.17203712 -0.054980937 -0.060301673 -0.118829764
-0.05852809 0.10109398 0.09045251 0.0496602 0.04788662 0.06207525 -0.0248301 0.09222609
0.0993204 -0.17026354 -0.017735787 0.13833913 -0.15430133 0.014188629 0.11173545 -0.067395985
0.060301673 -0.16316923 -0.15430133 0.17913143 -0.13656555 -0.044339463 0.065622404 -0.09399966
-0.18090501 0.06207525 -0.04788662 0.08690535 0.1241505 0.1418863 -0.015962208 -0.1826786
-0.03724515 -0.028377257 0.088678926 0.033697993 0.014188629 -0.1649428 -0.11528261 -0.017735787

sequential/dense_1/MatMul/ReadVariableOp/transpose i1 [1, 128] scale=0.0018392486 zero_point=0
00000000: a45e 263e 18e4 b5aa 59df 9128 5fff bc5e
00000010: 44f9 3970 63aa c1d8 d394 ed3c ba32 70ed
00000020: 9524 ee24 3b30 5613 0626 ed37 9130 d761
00000030: e2cb fe18 0ad3 9d91 e0c0 e823 6bd4 6a57
00000040: f0a8 86c9 6944 0bb0 942a b8ba 6f10 e4de
00000050: 45ec 21ac 2d03 f705 5989 16dd 6910 49cb
00000060: 73f3 de6d 50be 3c6f 2789 a12a 5fe7 e906
00000070: cf0f 9fa6 b5e1 261b 2c0e 1d81 62b9 d2cf
-0.16921087 0.17288937 0.069891445 0.11403341 0.044141967 -0.05149896 -0.13794364 -0.15817538
0.16369313 -0.060695205 -0.20415659 0.073569946 0.17472862 -0.0018392486 -0.1250689 0.17288937
0.1250689 -0.01287474 0.10483717 0.20599584 0.1820856 -0.15817538 -0.11587266 -0.073569946
-0.08276618 -0.19863884 -0.034945723 0.110354915 -0.1287474 0.09196243 0.20599584 -0.034945723
-0.19679959 0.06621295 -0.033106476 0.06621295 0.108515665 0.08828393 0.15817538 0.034945723
0.011035492 0.069891445 -0.034945723 0.10115867 -0.20415659 0.08828393 -0.07540919 0.17840712
-0.055177458 -0.09748018 -0.0036784972 0.044141967 0.018392486 -0.08276618 -0.1820856 -0.20415659
-0.058855955 -0.11771191 -0.044141967 0.0643737 0.19679959 -0.08092694 0.19496036 0.16001463
-0.029427977 -0.16185388 -0.22438833 -0.10115867 0.1931211 0.1250689 0.020231735 -0.14713989
-0.19863884 0.07724844 -0.1324259 -0.1287474 0.20415659 0.029427977 -0.05149896 -0.06253445
0.12690815 -0.036784973 0.060695205 -0.15449688 0.08276618 0.005517746 -0.016553238 0.009196243
0.16369313 -0.21887058 0.04046347 -0.0643737 0.1931211 0.029427977 0.13426514 -0.09748018
0.2115136 -0.023910232 -0.06253445 0.20047809 0.14713989 -0.12139041 0.110354915 0.20415659
0.071730696 -0.21887058 -0.17472862 0.07724844 0.17472862 -0.045981213 -0.042302717 0.011035492
-0.090123184 0.027588729 -0.17840712 -0.16553237 -0.13794364 -0.057016704 0.069891445 0.04965971
0.08092694 0.02574948 0.053338207 -0.23358457 0.18024637 -0.13058665 -0.08460543 -0.090123184
