Quantization/post-quantization-training/catvsdog_weight_quant.tflite (tflite, 20480 bytes, 7 tensors)

sequential/conv2d/Conv2D/ReadVariableOp f4 [32, 3, 3, 3]
00000000: 283f 6bbd b8bb a43c 2385 42bc 7bbd 84bd
00000010: e928 ec3d 391a a1bc ccb6 89bd db4b cabb
00000020: 7949 9d3d 43c4 193e 2f48 593d a5e5 a93d
00000030: 4e07 b5bd a206 1d3e f063 02be 8d59 40bc
00000040: 9522 aebd 5d1e 6bbd bb50 02be 1b02 05bd
00000050: cf45 f83d 1484 8abd db6f 7d3d f9ab b1bd
00000060: d8a4 ed3c cd4a be3d 45a8 59bd 7506 493d
00000070: 42e7 71bd c601 ef3d 0911 073d 11b5 e9bd
00000080: 0079 033e 7349 f1bd c876 c1bd 1fad 05bd
00000090: da85 adbd 11f0 fabd 1b26 05bd a9fb a2bd
000000a0: 7e36 c6bc 2027 023e aec8 2c3a 70b4 933d
000000b0: bccb 9e3d 7dc1 403d a0b6 8e3d e009 853c
000000c0: 5e00 0ebe 40a8 443c 390b cebd 7efb bb3d
000000d0: b747 fc3d c8fb b4bd 4990 a5bd 99ca ecbc
000000e0: aef6 b23d 8bc1 f1bd 7f6b 843d 9c3c 0d3e
000000f0: c9b2 9e3a 3d2c 6abd 62a5 55bd e61f 1fbd
00000100: f964 97bd 4556 bf3d 0090 443d e931 0ebd
00000110: 7e9b 09be 7c61 053e 9977 a23c 78d9 70bd
00000120: 877b d1bd ecbe eabd db3b bcbd 04a0 913d
00000130: 6034 733c 6cde db3d 776a 4dbc 12a0 bbbb
00000140: 3514 bfbc 3edf e43d 0686 b43d 09ab d0bd
00000150: a195 80bc a342 c13d 688d 85bd e516 a5bd
00000160: c5e1 063e 538a 3d3d 6813 0d3e 737a 04be
00000170: 4713 99bd bcdb dd3d fd28 8e3d 8769 a6bd
00000180: 6803 74bd 7b05 eabd 4ea6 c73d 720f f63d
00000190: 296c 143d dca3 48bd 2733 d6bd c514 04be
000001a0: 1293 823c 1fbf c5b9 c53e 93bd 1571 45bc
000001b0: 7378 9bbd ef15 b4bd 6536 583c 8611 d2bc
000001c0: 9b42 edbd 672b 13be 9d6e c7bd a596 e5bc
000001d0: 7ac4 c4bd dc4e e83b d327 68bd 0044 4dbd
000001e0: 46bc dfbd f2cb cbbd 9199 87bd 2a7b 503d
000001f0: 6c12 aabd e1a4 613d 2866 be3c 650a bebd
00000200: eb11 2b3c c065 eebd dee8 98bd 2e09 8d3d
00000210: 1570 7abd b065 8fbd 6ffb d13d 18d5 083e
00000220: b1a9 1d3c d67a b3bd 9493 00bb f524 eebd
00000230: 5cc9 3cbd ea0b 443d 22cf efbc 6eb0 8cbd
00000240: 51f7 ff3d dcc1 e9bd 5654 42bc 9793 abbc
00000250: 2a8f 0ebd 5e04 e23d 4834 a63d 246f 493d
00000260: a2ee efbd 0238 e6bd a405 e8bd 76fe acbd
00000270: c7cb 2b3d ef94 063e 0b09 db3d 63fe 19bd
00000280: 2239 ddbd 163f dabd 03ac f6bc 7867 1dbb
00000290: 60cf be3d 3869 cf3d 46ca d6bd 495e 493d
000002a0: 2a08 d5bd 4547 80bd c869 f5ba 3b98 42ba
000002b0: 2062 013d 6f84 9f3d aad7 7dbc d830 b73d
000002c0: bce9 8a3d abb4 0ebd 398a 09be 0fea 333d
000002d0: ec44 89bd 9cbe 3bbd 2961 b13d 7e21 0fbe
000002e0: 4497 86bc 1a58 f53c 3a4e 79bd 8334 c93a
000002f0: 477f b5bd 3547 723c b1e1 c5bd 6e82 a53d
00000300: 3f3d be3d 80a6 82bd d3e8 d3bd d45d e7bd
00000310: 86c6 b1bd 52b5 aa3c f2e3 193c e424 b43d
00000320: f0fa fdbd 4933 18be 1c60 3ebd a37b e23d
00000330: fe94 053d 98f1 36bd 2492 9f3d 2e1c 2dbd
00000340: 9bba a73c 94ac 84bd a3a9 adba d25e 31bd
00000350: 0367 7bbc aad5 e9bd 326f 923d d363 f3bd
00000360: be0d f3bc 18ba 043d bb15 ff3c e019 a9bd
00000370: 2d84 f23d 02d1 01be b547 d8bd 2c6d 743d
00000380: 44f2 12be 26ac 7c3d e253 3c3d b869 11be
00000390: 64c1 5d3d bfee f23d 6648 093d b69e 3bbd
000003a0: c813 6dbb 1556 8fbd 2491 b43d 7257 a43d
000003b0: fb26 2c3d 995e a8bd aa9c fa3d f23c 7bbd
000003c0: c3b7 8ebd 8083 fd3d 0661 f23c a176 4ebd
000003d0: 6dbb 1ebe e587 10be 7631 103c dccf c53d
000003e0: 5064 34bd 54ba 12be 0c3a 21bd 866e eb3d
000003f0: 9161 d03d f002 b83d d449 c13d f499 1dbd
-0.057433277 0.020109043 -0.011872563 -0.06481453 0.115312405 -0.019665824 -0.06724319 -0.0061735935
0.076800294 0.15016274 0.053047355 0.08295754 -0.08839284 0.15334561 -0.12733436 -0.011740101
-0.0850269 -0.057402004 -0.12726109 -0.03247271 0.1212269 -0.06763473 0.06187425 -0.08675379
0.029009268 0.09291611 -0.05313899 0.049078424 -0.059058435 0.1167026 0.03297523 -0.11411489
0.12839127 -0.117815875 -0.09446484 -0.032635804 -0.08472796 -0.1225282 -0.032507043 -0.079581566
-0.024195906 0.12710238 0.0006591183 0.0721215 0.07753703 0.047059525 0.06968427 0.01624006
-0.13867328 0.012003005 -0.10060734 0.09178828 0.12318366 -0.08837086 -0.08084161 -0.0289052
0.08738457 -0.118044935 0.06465816 0.13792652 0.0012107725 -0.057171095 -0.052159674 -0.03884878
-0.07392306 0.093426265 0.04798889 -0.034715567 -0.13438222 0.13025469 0.01983242 -0.058801144
-0.10228639 -0.11462197 -0.09191104 0.07110599 0.01484403 0.10735783 -0.01253759 -0.005725869
-0.023325065 0.111753926 0.088146254 -0.10188872 -0.015696349 0.09436538 -0.06521112 -0.080610074
0.13172062 0.046274494 0.13776934 -0.12937336 -0.0747438 0.10832927 0.06941412 -0.081255965
-0.05957356 -0.114268266 0.09748517 0.12014665 0.036235962 -0.048984393 -0.10458975 -0.12898548
0.01593927 -0.00037717164 -0.07189707 -0.012050887 -0.07591333 -0.08793246 0.013196562 -0.025643121
-0.115849696 -0.14372025 -0.09737895 -0.028025934 -0.096077874 0.007089479 -0.056678604 -0.050113678
-0.10924582 -0.09951009 -0.06621087 0.05089871 -0.08304295 0.05508888 0.023242071 -0.09279326
0.010441284 -0.11640501 -0.07466291 0.068865165 -0.061142046 -0.07001817 0.10253035 0.13362539
0.009622977 -0.087636635 -0.0019619213 -0.11628143 -0.04609047 0.047862925 -0.029273573 -0.06869589
0.12498344 -0.11413929 -0.011860928 -0.0209444 -0.0348045 0.11035989 0.081154406 0.049178258
-0.117154375 -0.112411514 -0.11329201 -0.08446972 0.041942384 0.13142751 0.10695084 -0.037596118
-0.10801913 -0.10656564 -0.030111318 -0.002401797 0.093168974 0.10127491 -0.10487799 0.049162183
-0.10401948 -0.062635936 -0.0018723542 -0.0007423197 0.03158772 0.077889316 -0.015493313 0.08944863
0.067828625 -0.034840267 -0.13431634 0.043924388 -0.06702599 -0.045836076 0.0866111 -0.1397762
-0.016429551 0.029949237 -0.06086562 0.0015350733 -0.08862167 0.014787485 -0.09662188 0.08081518
0.092890255 -0.063794136 -0.10347142 -0.11297193 -0.086804435 0.020838413 0.009392725 0.08796099
-0.12401378 -0.14863314 -0.046478376 0.11058738 0.032612793 -0.044663996 0.07791546 -0.042263202
0.020474723 -0.06478229 -0.0013249408 -0.04330332 -0.015344384 -0.11417706 0.07150115 -0.11884274
-0.029669639 0.032404035 0.031138292 -0.082568884 0.11841617 -0.12677386 -0.10560552 0.059674427
-0.1435023 0.06168761 0.045978434 -0.14200485 0.05413951 0.118619435 0.03351631 -0.045805655
-0.003617512 -0.06998841 0.08816746 0.08024491 0.042029362 -0.08221168 0.122369125 -0.06133742
-0.069686435 0.12378597 0.02958728 -0.050406102 -0.15501185 -0.1411434 0.008800855 0.09658787
-0.044040978 -0.14328891 -0.039362 0.1149569 0.10174859 0.08984935 0.0943791 -0.0384769

sequential/conv2d/Conv2D_bias f4 [32]
00000000: aea8 b13b c81e 02bc c1ac 543c 49c6 80bc
00000010: 391f 53bc d60f 8f3b 5bb2 28bc 9993 36bb
00000020: 9601 e3bb f0e9 07bc f6d2 bdbc 0735 babc
00000030: bdcc 70bb 7a59 b3bc e180 13bc 2a5f 6c3d
00000040: 9912 c93b 5120 ffbb 8c1e b0bc 1291 a93c
00000050: 26d6 2d3b da14 d4bb 33bb 853b 153f 2dbc
00000060: 285d bebb 9e08 a73b 949f 6bbc c38b 20bc
00000070: 391c b93b 8acf bb3a ac61 90bc 24fe a9bc
0.0054217195 -0.007941909 0.012980641 -0.01571955 -0.012885862 0.0043659015 -0.0102964295 -0.002785897
-0.0069276793 -0.008295521 -0.023171883 -0.022730364 -0.0036743127 -0.021893252 -0.009002895 0.057707943
0.00613625 -0.007785835 -0.02149894 0.020699058 0.0026525347 -0.0064722123 0.004081154 -0.010574122
-0.005809445 0.005097463 -0.014381308 -0.009798947 0.0056491164 0.0014328819 -0.017624699 -0.020751067

sequential/conv2d_1/Conv2D/ReadVariableOp i1 [32, 3, 3, 32] scale=0.001215454 zero_point=0
00000000: e30b f14a 35d2 2c53 4713 13e6 2bea 126a
00000010: 38eb 08dc 09f0 281c 35dc dcdd 573f 53ea
00000020: 1dca 5fe5 ae4f f2f7 42ba ea03 ae22 e0da
00000030: 47f8 cc07 0002 cee4 fa43 a9e3 5222 c10f
00000040: 210f 23be c73a 3fea b202 b1fb 37fc ae2e
00000050: d52e 0224 1c93 b929 dca6 021a 4dd8 ac34
00000060: ef41 f74a b434 c7db c81a fbfa 1007 d817
00000070: c0b2 0504 fdfd 1037 2530 4ad6 0406 b4cc
00000080: c8d2 ea4b 28ce 2a1b 50fe f447 09f6 21d2
00000090: a512 eaab d20c bdc4 2bd8 1bc0 2325 b908
000000a0: 2b11 2f40 3905 c004 e83a e248 48e3 d61b
000000b0: 3b04 1fc9 d1f0 35fa b52e c339 eacc 122d
000000c0: c9c2 fdd4 4ffd bc4b dc09 be08 d3cb a6e2
000000d0: 49b1 c85c 43e6 beb5 c0fc 2e3a 062d 37b1
000000e0: caee 5111 d6b2 a91a d447 dc1f d725 ab2f
000000f0: 5323 d221 223e d157 dac7 3ff8 e42c 06ff
-0.035248164 0.013369993 -0.01823181 0.089943595 0.06441906 -0.05591088 0.053479973 0.10088268
0.08629723 0.023093626 0.023093626 -0.0316018 0.05226452 -0.026739987 0.021878172 0.12883812
0.06806542 -0.025524532 0.009723632 -0.043756343 0.010939086 -0.019447263 0.04861816 0.03403271
0.06441906 -0.043756343 -0.043756343 -0.04254089 0.105744496 0.0765736 0.10088268 -0.026739987
0.035248164 -0.06563451 0.11546813 -0.032817256 -0.09966722 0.09602086 -0.017016355 -0.010939086
0.08021996 -0.08508178 -0.026739987 0.0036463619 -0.09966722 0.041325435 -0.038894527 -0.04618725
0.08629723 -0.009723632 -0.0632036 0.0085081775 0.0 0.002430908 -0.0607727 -0.03403271
-0.0072927237 0.08143541 -0.105744496 -0.035248164 0.09966722 0.041325435 -0.0765736 0.01823181
0.04010998 0.01823181 0.04254089 -0.08021996 -0.06928088 0.07049633 0.0765736 -0.026739987
-0.09480541 0.002430908 -0.09602086 -0.00607727 0.06684997 -0.004861816 -0.09966722 0.05591088
-0.05226452 0.05591088 0.002430908 0.043756343 0.03403271 -0.13248448 -0.08629723 0.04983361
-0.043756343 -0.109390855 0.002430908 0.0316018 0.093589954 -0.04861816 -0.10209813 0.0632036
-0.020662718 0.079004504 -0.010939086 0.089943595 -0.0923745 0.0632036 -0.06928088 -0.044971798
-0.06806542 0.0316018 -0.00607727 -0.0072927237 0.019447263 0.0085081775 -0.04861816 0.02795544
-0.07778905 -0.09480541 0.00607727 0.004861816 -0.0036463619 -0.0036463619 0.019447263 0.06684997
0.044971798 0.05834179 0.089943595 -0.051049065 0.004861816 0.0072927237 -0.0923745 -0.0632036
-0.06806542 -0.05591088 -0.026739987 0.091159046 0.04861816 -0.0607727 0.051049065 0.032817256
0.09723632 -0.002430908 -0.0145854475 0.08629723 0.010939086 -0.01215454 0.04010998 -0.05591088
-0.11060631 0.021878172 -0.026739987 -0.10331359 -0.05591088 0.0145854475 -0.08143541 -0.07292724
0.05226452 -0.04861816 0.032817256 -0.07778905 0.04254089 0.044971798 -0.08629723 0.009723632
0.05226452 0.020662718 0.057126336 0.07778905 0.06928088 0.00607727 -0.07778905 0.004861816
-0.029170895 0.07049633 -0.03646362 0.08751269 0.08751269 -0.035248164 -0.051049065 0.032817256
0.071711786 0.004861816 0.037679072 -0.06684997 -0.057126336 -0.019447263 0.06441906 -0.0072927237
-0.091159046 0.05591088 -0.074142694 0.06928088 -0.026739987 -0.0632036 0.021878172 0.054695427
-0.06684997 -0.075358145 -0.0036463619 -0.053479973 0.09602086 -0.0036463619 -0.08265087 0.091159046
-0.043756343 0.010939086 -0.08021996 0.009723632 -0.054695427 -0.06441906 -0.109390855 -0.03646362
0.08872814 -0.09602086 -0.06806542 0.11182176 0.08143541 -0.0316018 -0.08021996 -0.091159046
-0.07778905 -0.004861816 0.05591088 0.07049633 0.0072927237 0.054695427 0.06684997 -0.09602086
-0.06563451 -0.021878172 0.09845177 0.020662718 -0.051049065 -0.09480541 -0.105744496 0.0316018
-0.053479973 0.08629723 -0.043756343 0.037679072 -0.04983361 0.044971798 -0.10331359 0.057126336
0.10088268 0.04254089 -0.05591088 0.04010998 0.041325435 0.075358145 -0.057126336 0.105744496
-0.04618725 -0.06928088 0.0765736 -0.009723632 -0.03403271 0.053479973 0.0072927237 -0.001215454

sequential/conv2d_1/Conv2D_bias f4 [32]
00000000: 5335 053c 2561 63bc ef84 7f3c aae7 c4bb
00000010: ec9c 7cbc bcd4 823c 29ca 4e3c a0c4 d8ba
00000020: e9b9 bb3c 638b 35bc fe3b 333c 5c81 85bc
00000030: 9689 903c c586 4abc 7e7e 4c3b d78c 73bc
00000040: 9ff9 233c 084b 10bc 2160 0ebc 0bc2 dcba
00000050: 0230 e53b 605b 853c 304d 963c eb4b c73c
00000060: 66bc 35bc 6a99 23bc b5d7 3fbb 94df 74bc
00000070: 0271 cd3c 0028 7d3c ec91 04bc 9f67 b639
0.008130389 -0.0138781415 0.015595659 -0.006009062 -0.015418272 0.01597058 0.012621441 -0.0016538091
0.022915797 -0.011080596 0.010939596 -0.016297035 0.017643731 -0.012361233 0.0031203325 -0.014865122
0.010008245 -0.008806951 -0.008689911 -0.0016842497 0.0069942484 0.016278923 0.018347353 0.024328193
-0.011092281 -0.009985307 -0.0029272859 -0.014945883 0.0250783 0.015451431 -0.008091431 0.0003479095

sequential/dense/MatMul/ReadVariableOp/transpose i1 [128, 32] scale=0.0017735786 zero_point=0
00000000: 52b8 bafe ce06 e9ea a196 16a7 b22a 456c
00000010: d602 6569 d63f c1a7 98f6 67f0 1ce4 a060
00000020: b7ab b4f8 4f60 c864 44de de0d 0ef0 655a
00000030: f2a4 ce3a b604 00ad c019 a9f4 c006 9b3e
00000040: f973 0615 f129 09d6 9b9b c529 fc9c c00b
00000050: daf6 f2be dfd1 dbe1 3212 03d5 cc63 7398
00000060: de15 2ca4 5813 721b 2414 c15c 0fde afcf
00000070: 539d fd5b 5de6 034d 4356 0809 f121 eaca
00000080: 3cce b149 2512 595b 0e5f 37a3 0a06 3c63
00000090: 65fa a700 17cc b7af f6c9 ea40 b1be 1ef0
000000a0: 61d3 386a 9ebc e410 a239 046c 10de 142b
000000b0: 6968 11cc 60b1 f659 601a 03db a43f 3155
000000c0: 4d3d a63d 520d f4ed e556 b993 47a0 9d45
000000d0: ab30 0669 61e1 debd df39 331c 1b23 f234
000000e0: 38a0 f64e a908 3fda 22a4 a965 b3e7 25cb
000000f0: 9a23 e531 4650 f799 ebf0 3213 08a3 bff6
0.14543344 -0.12769766 -0.1241505 -0.0035471572 -0.088678926 0.0106414715 -0.04079231 -0.039018728
-0.16848996 -0.18799932 0.039018728 -0.15784849 -0.13833913 0.0744903 0.12237692 0.19154648
-0.0744903 0.0035471572 0.17913143 0.18622576 -0.0744903 0.11173545 -0.11173545 -0.15784849
-0.18445218 -0.017735787 0.1826786 -0.028377257 0.0496602 -0.0496602 -0.17026354 0.17026354
-0.12947124 -0.15075418 -0.13479197 -0.014188629 0.14011271 0.17026354 -0.0993204 0.17735785
0.120603345 -0.060301673 -0.060301673 0.023056522 0.0248301 -0.028377257 0.17913143 0.15962207
-0.0248301 -0.16316923 -0.088678926 0.10286756 -0.13124481 0.0070943143 0.0 -0.14720702
-0.11350903 0.044339463 -0.15430133 -0.021282943 -0.11350903 0.0106414715 -0.17913143 0.109961875
-0.01241505 0.20396154 0.0106414715 0.03724515 -0.026603678 0.07271672 0.015962208 -0.0744903
-0.17913143 -0.17913143 -0.10464114 0.07271672 -0.0070943143 -0.17735785 -0.11350903 0.019509364
-0.067395985 -0.017735787 -0.0248301 -0.11705618 -0.05852809 -0.08335819 -0.065622404 -0.054980937
0.088678926 0.031924415 0.0053207357 -0.07626388 -0.09222609 0.17558429 0.20396154 -0.18445218
-0.060301673 0.03724515 0.078037456 -0.16316923 0.15607491 0.033697993 0.20218796 0.04788662
0.06384883 0.035471573 -0.11173545 0.16316923 0.026603678 -0.060301673 -0.14365986 -0.08690535
0.14720702 -0.17558429 -0.0053207357 0.16139565 0.1649428 -0.046113044 0.0053207357 0.13656555
0.118829764 0.15252776 0.014188629 0.015962208 -0.026603678 0.05852809 -0.039018728 -0.09577324
0.10641471 -0.088678926 -0.14011271 0.12947124 0.065622404 0.031924415 0.15784849 0.16139565
0.0248301 0.16848996 0.09754682 -0.1649428 0.017735787 0.0106414715 0.10641471 0.17558429
0.17913143 -0.0106414715 -0.15784849 0.0 0.04079231 -0.09222609 -0.12947124 -0.14365986
-0.017735787 -0.09754682 -0.039018728 0.11350903 -0.14011271 -0.11705618 0.053207356 -0.028377257
0.17203712 -0.07981104 0.0993204 0.18799932 -0.1738107 -0.120603345 -0.0496602 0.028377257
-0.16671638 0.10109398 0.0070943143 0.19154648 0.028377257 -0.060301673 0.035471573 0.07626388
0.18622576 0.18445218 0.030150836 -0.09222609 0.17026354 -0.14011271 -0.017735787 0.15784849
0.17026354 0.046113044 0.0053207357 -0.065622404 -0.16316923 0.11173545 0.08690535 0.15075418
0.13656555 0.108188294 -0.15962207 0.108188294 0.14543344 0.023056522 -0.021282943 -0.033697993
-0.04788662 0.15252776 -0.12592408 -0.19332007 0.12592408 -0.17026354 -0.17558429 0.12237692
-0.15075418 0.08513177 0.0106414715 0.18622576 0.17203712 -0.054980937 -0.060301673 -0.118829764
-0.05852809 0.10109398 0.09045251 0.0496602 0.04788662 0.06207525 -0.0248301 0.09222609
0.0993204 -0.17026354 -0.017735787 0.13833913 -0.15430133 0.014188629 0.11173545 -0.067395985
0.060301673 -0.16316923 -0.15430133 0.17913143 -0.13656555 -0.044339463 0.065622404 -0.09399966
-0.18090501 0.06207525 -0.04788662 0.08690535 0.1241505 0.1418863 -0.015962208 -0.1826786
-0.03724515 -0.028377257 0.088678926 0.033697993 0.014188629 -0.1649428 -0.11528261 -0.017735787

sequential/dense/MatMul_bias f4 [128]
00000000: 51ce c13b fe73 e8bb 432c 453c 9560 b23b
00000010: 288f 0abc 97cd e03b a33a 95bb 6161 01bc
00000020: 21fa 49bc 74df 233c c929 e53b bd98 113b
00000030: 804b cb3a e3eb 8cbc 7fc3 003c 584b 5fbc
00000040: 9ae0 0bbc 0000 0000 f1f0 86bc 0000 0000
00000050: 9c07 89bb 862f 903c e048 563c 0000 0000
00000060: 2d2b 88b9 4244 243c d56f babb 00bd 6fbb
00000070: ae7c b1ba 2a4f 6d3a 7f64 98bc 3b8e 453c
00000080: 9238 873c 3042 0cbc 4d64 4c3c e7f2 97bc
00000090: 0000 0000 cbfb 09bc 1fea 47bb 330f 93bc
000000a0: 0160 39bc 56fe 08bc a5a1 ee3b ded1 5cba
000000b0: 15c6 22bc 5e1e eb3a b97c 483a 5226 05bc
000000c0: 6d72 153c 58da ae3b 1b75 5dbc 1191 91bc
000000d0: f7c5 8cbb 4c62 653c 9970 a8bc 9e27 a83c
000000e0: 8abd 8c3c 7553 393c 2792 ecbb 0000 0000
000000f0: a6f5 edbb d0f6 a53b 173b cabb 006c 0abc
00000100: 168e f33b e140 013c 7db6 0a3c f924 093c
00000110: 02ee 13bc eb94 cfbb a824 9f3a f4b9 103c
00000120: 595b bf3b 4ae9 11bc 557e ff3b 39be 38bc
00000130: e4a8 e2bb 0000 0000 4a51 35b8 4947 033d
00000140: 4d61 2dbc de4b bb3b e5c9 233c ee08 b6bb
00000150: 0c17 09bc bdac a2bc d646 0d3c f8d2 04bc
00000160: af1e cf3b 39d6 cf3c 0000 0000 521b 3f3c
00000170: d3c2 a8bb c6d4 36bc abf9 8f3a a15c fabb
00000180: f01e 0cbc 1c83 303b 6cf3 5b3c 328b c5bb
00000190: 1572 aebb f8e0 fe3b b31d 85ba 024f 07bb
000001a0: a244 c4bb ea24 7b3c 87e9 603c 77ca 08bc
000001b0: 66a8 46bb fa7a b73b bc32 b4bb bdd7 24bb
000001c0: 2407 bd3b bd35 f5bb 6bf2 d8b9 f83b 013c
000001d0: 0b42 85bc 2fbd 1e3c 9ffc 09bc 8b02 f1bb
000001e0: 5885 06bc 1b6a c23b bdb0 87bb 1e1b 9f3c
000001f0: 399f 8bbb 0000 0000 515b 0bbc b9b6 ac3c
0.0059144874 -0.0070939055 0.012034479 0.0054436424 -0.008456983 0.0068604457 -0.004554109 -0.007896752
-0.012327702 0.010002006 0.0069935066 0.0022216283 0.0015510172 -0.017202323 0.00785911 -0.013628803
-0.008537436 0.0 -0.016472312 0.0 -0.0041818153 0.017600786 0.013078898 0.0
-0.0002597211 0.01002604 -0.005689601 -0.0036581159 -0.0013541186 0.0009052629 -0.018602608 0.012057836
0.016506467 -0.008560702 0.012475085 -0.018548442 0.0 -0.0084218485 -0.0030504537 -0.017951583
-0.011314393 -0.00836142 0.007282453 -0.00084236066 -0.009934922 0.0017938127 0.00076479797 -0.008126812
0.0091215195 0.005336087 -0.01351669 -0.017769368 -0.00429606 0.014000487 -0.020561503 0.020526703
0.017180223 0.011311402 -0.007219571 0.0 -0.0072619496 0.0050648227 -0.006171595 -0.008448601
0.0074327094 0.0078890035 0.00846636 0.008370631 -0.009028913 -0.006334891 0.0012141662 0.008833397
0.005839747 -0.008905718 0.0077970424 -0.011275821 -0.006917106 0.0 -4.322947e-05 0.032050405
-0.01058228 0.005715831 0.009996866 -0.0055552637 -0.008367311 -0.019857759 0.008622846 -0.0081069395
0.0063207964 0.025370704 0.0 0.0116642285 -0.005150178 -0.011159128 0.0010984441 -0.0076404368
-0.008552298 0.0026933616 0.0134247355 -0.0060285563 -0.005323658 0.007778283 -0.0010155946 -0.0020646458
-0.005989627 0.015328625 0.013727552 -0.008349053 -0.0030312776 0.0055993767 -0.005499212 -0.0025153004
0.0057686735 -0.0074832127 -0.00041379346 0.007887833 -0.016266843 0.00968866 -0.008422046 -0.0073550395
-0.008210503 0.005933059 -0.004140942 0.01942211 -0.004260924 0.0 -0.008505658 0.021083223

sequential/dense_1/MatMul/ReadVariableOp/transpose f4 [1, 128]
00000000: 82e9 2cbe afb0 303e b18b 8f3d a0c3 e93d
00000010: d0bd 313d ec73 55bd b162 0cbe 605a 22be
00000020: 1ece 263e 4d54 77bd 7bb0 50be 37ab 963d
00000030: 27c7 333e 59ca 0dbb ea60 00be 7026 303e
00000040: e59b 003e 9098 47bc f166 d53d a25f 533e
00000050: 1d87 3a3e 3fd7 21be efe3 edbd e257 97bd
00000060: ac23 a8bd 971d 4bbe 31c7 0dbd 6876 e03d
00000070: 3042 04be 6dd1 ba3d e605 523e b306 10bd
00000080: 9d99 49be f1a8 883d 53b8 05bd 7bdc 873d
00000090: 8486 de3d d328 b33d c30e 223e 89c8 0b3d
000000a0: ad9c 2a3c 5c1c 8f3d 556a 0cbd e6a7 cd3d
000000b0: db22 51be 19ab b63d c802 9abd 2000 373e
000000c0: 77aa 62bd 1230 c8bd 4952 5abb 03f9 343d
000000d0: 581b 9e3c 9948 a9bd de23 3abe d261 50be
000000e0: 5834 70bd befe efbd ea52 36bd 601c 843d
000000f0: 80b0 483e 71ea a3bd b9ec 463e db3c 233e
00000100: a59a f4bc 5944 25be 13e4 65be 7c53 d0bd
00000110: e81e 453e d3db 003e 0a14 a23c 726c 16be
00000120: ef6a 4bbe bb77 9d3d f163 08be 4f16 04be
00000130: d4ca 513e 50b3 f33c dd12 50bd 724a 7fbd
00000140: 0920 013e b843 16bd f647 7c3d 90b1 1dbe
00000150: b42f a83d 817f c53b 7ad2 88bc fd70 203c
00000160: f1ee 273e 80ec 60be 307d 233d 1a3f 84bd
00000170: 0318 453e 2f10 ec3c eb19 093e 7639 c7bd
00000180: 85b8 583e 4be8 c1bc 1de6 81bd c237 4d3e
00000190: a3e5 153e a414 fabd cdb7 e03d 1947 513e
000001a0: fe09 913d 0d65 60be 8864 32be ebb3 9c3d
000001b0: df62 333e e558 3bbd 3b07 2ebd 8630 3b3c
000001c0: 4937 b7bd b481 e63c 0094 36be fb2d 2abe
000001d0: 4494 0dbe ac94 67bd 8eb6 8d3d 32c0 473d
000001e0: 68d7 a63d 60e3 d83c 9043 5a3d cb30 6fbe
000001f0: e1fc 383e 8a68 05be ce74 adbd 5801 babd
-0.16885951 0.172549 0.07009066 0.11414266 0.04339391 -0.052112505 -0.13709523 -0.15854788
0.16289565 -0.06038313 -0.20379822 0.073568754 0.1755644 -0.0021635501 -0.1253697 0.17202163
0.12559469 -0.01218237 0.10420025 0.2064195 0.18215604 -0.15804766 -0.116157405 -0.07389809
-0.08209929 -0.19835506 -0.03461379 0.10960084 -0.12915874 0.09121976 0.20510063 -0.03516264
-0.19687505 0.06672848 -0.03264649 0.0663385 0.108655006 0.08748021 0.15825944 0.034126792
0.010413331 0.06987831 -0.034281094 0.1004179 -0.20423453 0.08919353 -0.07520062 0.17871141
-0.05533835 -0.09774794 -0.0033313206 0.04418279 0.019300148 -0.082658 -0.18177745 -0.20349815
-0.05864367 -0.1171851 -0.044512667 0.064507246 0.1959858 -0.080037005 0.1942624 0.15941183
-0.029858897 -0.16139354 -0.22450285 -0.101721734 0.19250071 0.12583856 0.019784946 -0.14689806
-0.1986501 0.076888524 -0.13319375 -0.12899135 0.20487529 0.029748589 -0.05079924 -0.062326856
0.12609877 -0.036685675 0.061592065 -0.15399766 0.08212224 0.0060271625 -0.016701926 0.0097925635
0.16399743 -0.21965218 0.03991431 -0.06457348 0.19247441 0.02881631 0.13388793 -0.09727757
0.21164139 -0.023670336 -0.06342719 0.20040801 0.1463838 -0.12210968 0.10972557 0.20437278
0.07081984 -0.21913548 -0.17421162 0.07651504 0.17518185 -0.045739073 -0.042487364 0.011425143
-0.08946092 0.02813802 -0.17829895 -0.16619103 -0.1382609 -0.05653827 0.06919585 0.048767276
0.08146554 0.026475608 0.05328709 -0.23358457 0.18065216 -0.1302816 -0.08469544 -0.090822875
